saved_models/CNNVAE.pth (torch, 375931 bytes, 13 tensors)

encoder.0.weight f4 [6, 1, 5, 5]
-0.48973978 -0.11750859 0.025309332 -0.061686043 0.0864512 0.008233145 -0.09884769 0.08264878
0.09351589 -0.0663606 -0.24427079 0.021144973 0.13869756 0.18328384 -0.017529415 -0.25341916
-0.040508702 -0.097538084 -0.12101893 -0.011934758 0.10563713 0.06650931 0.09716139 0.065472476
0.16855517 0.06792407 -0.075286224 -0.015993087 0.058654167 0.22555916 -0.061723236 0.028846288
0.07523498 -0.01564921 0.104143366 0.041868355 -0.121860206 -0.063409194 0.12527044 -0.14593974
-0.1506033 -0.034355212 -0.36459067 -0.64442396 -0.41871235 -0.27205795 0.123424925 -0.018817253
0.16752116 0.019439893 -0.24363244 -0.17040484 -0.049429663 -0.1289981 0.0527393 -0.2568042
-0.09450205 -0.06118621 0.100561254 -0.049158506 0.16676174 -0.022891706 0.015291732 0.10553579
0.011963652 0.20242983 0.09408042 0.15561311 0.13041408 0.18712881 0.2121448 -0.047580913
-0.06476525 -0.084259436 -0.03390915 -0.03366606 0.13955124 0.052285656 -0.0008727189 -0.05372731
0.18429172 0.035209112 -0.032483384 0.09650478 0.124126226 0.07318344 -0.001317612 0.00049432
0.15590703 -0.09464509 -0.09154939 -0.120383754 0.020549467 -0.066239625 0.0020763578 0.13539903
-0.14877461 -0.1850527 -0.23641929 -0.1601599 0.038993165 -0.009406761 0.07509679 -0.06026786
0.16562948 -0.01892336 0.021998167 -0.07261123 0.05111431 0.051027946 -0.021946676 -0.047616392
-0.05344998 -0.019550407 0.0160839 -0.01843108 0.010892977 0.03778909 0.012427911 0.11951641
-0.07114345 -0.0006173456 -0.021169744 0.070988245 0.18929279 -0.15442483 0.09397368 0.057601348
0.052970838 -0.16628782 0.031450626 -0.0017594793 0.11895944 0.046826534 -0.23518258 0.109090865
-0.11275366 0.15420057 0.15866032 -0.23008151 0.015550194 0.09512839 -0.08496033 -0.22566964
-0.19332276 -0.19944029 -0.2493278 -0.040331 -0.008562863 0.066692024
00000000: 2cbf fabe 58a8 f0bd 8455 cf3c 81aa 7cbd
00000010: 540d b13d 50e4 063c a870 cabd c343 a93d
00000020: 4285 bf3d 11e8 87bd 1f22 7abe 3938 ad3c
00000030: bc06 0e3e c2ae 3b3e d999 8fbc 28c0 81be
00000040: 74ec 25bd 0cc2 c7bd c6d8 f7bd 018a 43bc
00000050: 4858 d83d 0836 883d 8dfc c63d 6f16 863d
00000060: ba99 2c3e c61b 8b3d aa2f 9abd ef03 83bc
00000070: 5a3f 703d fbf8 663e 81d1 7cbd 0d4f ec3c
00000080: cc14 9a3d c632 80bc 1e49 d53d 277e 2b3d
00000090: d891 f9bd aedc 81bd e546 003e 3a71 15be
000000a0: c037 1abe 0db8 0cbd a1ab babe f8f8 24bf
000000b0: 7761 d6be 2e4b 8bbe 35c6 fc3d a426 9abc
000000c0: ab8a 2b3e 6940 9f3c c87a 79be 9b7e 2ebe
000000d0: c276 4abd 1418 04be 2a05 583d d77b 83be
000000e0: 4a8a c1bd 649e 7abd 0ff3 cd3d 6e5a 49bd
000000f0: 97c3 2a3e 6387 bbbc 2c8a 7a3c 2623 d83d
00000100: 3203 443c c449 4f3e 3cad c03d 0b59 1f3e
00000110: 458b 053e b29e 3f3e 7d3c 593e 34e4 42bd
00000120: a5a3 84bd 3690 acbd 52e4 0abd 6ce5 09bd
00000130: 85e6 0e3e 7c29 563d 2dc7 64ba 2b11 5cbd
00000140: f8b6 3c3e 6e37 103d 4c0d 05bd 4ca4 c53d
00000150: e435 fe3d 33e1 953d b9b3 acba 4195 013a
00000160: 18a6 1f3e 49d5 c1bd 3f7e bbbd c28b f6bd
00000170: 5b57 a83c a4a8 87bd 8113 083b 0ba6 0a3e
00000180: 5f58 18be 747e 3dbe e617 72be f500 24be
00000190: 4cb7 1f3d d11e 1abc 59cc 993d 6edb 76bd
000001a0: c69a 293e 2a05 9bbc 8035 b43c 32b5 94bd
000001b0: 3d5d 513d ae02 513d 84c9 b3bc 6809 43bd
000001c0: 5eee 5abd 2d28 a0bc 62c2 833c c7fc 96bc
000001d0: 7578 323c bcc8 1a3d 709e 4b3c 05c5 f43d
000001e0: a8b3 91bd 5dd5 21ba 2c6c adbc 4962 913d
000001f0: f8d5 413e 8b21 1ebe 4675 c03d 64ef 6b3d
00000200: f3f7 583d 5b47 2abe 5fd2 003d 549e e6ba
00000210: 02a1 f33d 2ecd 3f3d b4d3 70be 086b df3d
00000220: 64eb e6bd c1e6 1d3e da77 223e 7d9a 6bbe
00000230: 3ec6 7e3c acd2 c23d aeff adbd f115 67be
00000240: 67f6 45be 133a 4cbe c94f 7fbe 1e32 25bd
00000250: 404b 0cbc d495 883d

encoder.0.bias f4 [6]
0.004610064 0.05442364 -0.14147449 -0.10641288 -0.008127674 -0.003032694
00000000: 0510 973b 53eb 5e3d b0de 10be ffee d9bd
00000010: f029 05bc 2ac0 46bb

encoder.2.weight f4 [16, 6, 5, 5]
-0.04961023 0.20313372 0.31867728 0.114329495 0.09839938 -0.28256202 -0.097354196 0.008154799
-0.08498406 -0.05099205 -0.21765661 -0.16906892 -0.03529327 -0.089773126 0.0974408 -0.5927545
-0.14678162 -0.052558273 0.018672153 -0.005703606 -0.6561228 -0.02597521 -0.2169286 -0.038591396
0.011481535 -0.1980816 0.052597646 -0.14422157 -0.26618806 -0.44339943 -0.0010958082 0.0061605875
-0.07643969 -0.020711416 -0.41833523 0.08528236 0.044163376 -0.07612712 0.04201791 -0.18760741
0.24674545 -0.061740153 -0.090729535 -0.07038532 -0.1792594 0.25324258 0.049067136 0.0060392744
0.187277 -0.46940798 0.13948566 -0.002993328 0.0037487373 0.030759834 -0.05548194 -0.07778773
-0.03781897 0.118698075 0.122310154 -0.11161044 -0.26170877 -0.10693409 0.049274124 -0.044475347
-0.09325524 -1.1003808 0.026203018 -0.05109882 0.008083655 -0.08601347 -1.8517557 -0.36015502
-0.28052536 -0.19720301 -0.06489903 -0.15450154 -0.30954203 0.09502719 0.21417809 0.12063161
-0.36884907 -0.055129413 -0.16776195 -0.14015533 -0.18421209 0.13077562 0.039248213 -0.20602591
-0.08340339 -0.20957297 0.10367675 -0.024722582 -0.076747745 -0.031717595 -0.07876646 -0.100103304
-0.059873495 -0.112889186 -0.6215365 -0.8519357 -0.18817696 0.09321208 -0.07270716 0.006430754
0.071875535 -0.013230725 -0.06265974 0.028211225 -0.008815633 0.067963764 0.05584315 0.02460209
-0.060899124 0.07651525 0.020555941 0.040907335 -0.048710734 -0.0657473 -0.08025043 -0.012175839
-0.31034878 -0.24329422 0.010726583 0.09316787 0.14762709 -0.31868112 0.0256862 -0.1924401
0.26828188 0.107853286 -0.10046846 0.10472887 0.07488055 0.0010974498 0.007966173 -0.0053575947
-0.0185901 0.25217858 -0.12985812 0.06294401 -0.035594102 0.2687798 -0.062436547 -0.13851245
0.20722213 -0.2098991 0.065697595 -0.054265898 -0.29760742 -0.15509771 -0.037098907 0.089951314
0.1302756 0.08690983 0.13838147 0.15986364 -0.0913419 0.24869871 0.15638588 0.15989643
-0.069012284 -0.018496972 0.16496585 0.13573533 0.006171149 -0.18830398 0.19524798 0.1570865
-0.009572736 -0.20557243 -0.46427608 -0.28799286 -0.084849134 -0.14402936 -0.022163305 0.039419677
0.034786735 0.023500104 0.06834845 -0.23403786 0.12137948 0.06763612 -0.05329293 0.067439765
-0.24803485 0.13765323 -0.04188623 0.021917462 -0.11497617 -0.09808628 0.13344403 0.122309156
0.06651759 -0.061343327 0.022769159 0.20107286 -0.0036175563 -0.008218223 -0.048458744 -0.09767406
-0.26894638 -0.17235544 -0.07678188 -0.016440159 0.14640887 -1.3583786 -0.48295555 -0.0033347337
0.033267748 0.115167566 -0.6633247 -0.32558998 -0.057340987 0.06382262 0.0007689877 -0.6974146
-1.133311 -0.6181937 -0.008024709 -0.19246306 -0.68119824 -0.7253849 -0.307668 -0.30855772
-0.09404635 -0.16194203 -0.0974909 0.027427342 -0.04076679 -0.2507044 0.006617076 0.10297895
-0.28341544 -0.1642971 -0.34175968 -0.08139521 -0.20249787 -0.16779473 -0.009317462 -0.839931
-0.26313147 -0.42495158 -0.38692027 -0.39683312 -0.2843222 0.0012517591 -0.028461244 -0.09484808
-0.66978174 -0.65712523 -0.41461596 -0.3752432 -0.24075675 -0.2742762 -0.33852404 -0.02476323
00000000: 1934 4bbd 4902 503e ab29 a33e 9525 ea3d
00000010: 9d85 c93d f8ab 90be a361 c7bd b59b 053c
00000020: 1f0c aebd 0add 50bd 60e1 5ebe 6720 2dbe
00000030: ad8f 10bd f9da b7bd 0b8f c73d c2be 17bf
00000040: ec4d 16be 5847 57bd 58f6 983c 51e5 babb
00000050: aaf7 27bf f7c9 d4bc 8822 5ebe 0312 1ebd
00000060: 0c1d 3c3c e7d5 4abe a170 573d d2ae 13be
00000070: cd49 88be 4005 e3be 39a1 8fba c1de c93b
00000080: 6a8c 9cbd fdaa a9bc 0930 d6be 85a8 ae3d
00000090: a8e4 343d 89e8 9bbd f91a 2c3d 281c 40be
000000a0: d7aa 7c3e 3ee3 7cbd 68d0 b9bd 2e26 90bd
000000b0: c78f 37be 03a9 813e 9ffa 483d 1be5 c53b
000000c0: 8bc5 3f3e 3e56 f0be 54d5 0e3e b62b 44bb
000000d0: 60ad 753b 0cfc fb3c 0841 63bd 2c4f 9fbd
000000e0: 10e8 1abd fa17 f33d bf7d fa3d 0494 e4bd
000000f0: b1fe 85be 4300 dbbd aad3 493d c82b 36bd
00000100: 9afc bebd 47d9 8cbf b6a7 d63c ff4c 51bd
00000110: 4e71 043c d527 b0bd 5506 edbf 3d66 b8be
00000120: 05a1 8fbe 96ef 49be c8e9 84bd a735 1ebe
00000130: 4b7c 9ebe 9e9d c23d 8051 5b3e b50d f73d
00000140: c9d9 bcbe 61cf 61bd cac9 2bbe e184 0fbe
00000150: 18a2 3cbe 0bea 053e bcc2 203d 75f8 52be
00000160: 66cf aabd 4c9a 56be 7a54 d43d 0387 cabc
00000170: ec2d 9dbd 4fea 01bd 4f50 a1bd f602 cdbd
00000180: e93d 75bd 7232 e7bd 041d 1fbf 7518 5abf
00000190: 76b1 40be fae5 be3d 7ee7 94bd 13b9 d23b
000001a0: 7b33 933d afc5 58bc c053 80bd 3a1b e73c
000001b0: 726f 10bc 9630 8b3d c9bb 643d 528a c93c
000001c0: 5c71 79bd 07b4 9c3d ef64 a83c 738e 273d
000001d0: e884 47bd 85a6 86bd 565a a4bd 2c7d 47bc
000001e0: 09e6 9ebe 1f22 79be 8dbe 2f3c ccce be3d
000001f0: 8e2b 173e 2c2a a3be de6b d23c 040f 45be
00000200: 3e5c 893e 2fe2 dc3d 68c2 cdbd 177c d63d
00000210: f95a 993d 4ed8 8f3a 8d84 023c c38e afbb
00000220: 444a 98bc 8d1d 813e 87f9 04be cae8 803d
00000230: 1fcb 11bd 829d 893e 77bd 7fbd 35d6 0dbe
00000240: 0a32 543e caef 56be 768c 863d eb45 5ebd
00000250: 0060 98be efd1 1ebe 06f5 17bd 6538 b83d
00000260: f866 053e c8fd b13d dfb3 0d3e 4bb3 233e
00000270: 7611 bbbd e0aa 7e3e 9f23 203e e4bb 233e
00000280: 5056 8dbd f686 97bc cfec 283e 34fe 0a3e
00000290: 5a37 ca3b c2d2 40be 16ef 473e 49db 203e
000002a0: f7d6 1cbc 9481 52be 98b5 edbe cd73 93be
000002b0: 62c5 adbd 6f7c 13be d28f b5bc 8776 213d
000002c0: 897c 0e3d 4a83 c03c 46fa 8b3d 9fa7 6fbe
000002d0: ce95 f83d ce84 8a3d b049 5abd dc1d 8a3d
000002e0: d9fc 7dbe f8f4 0c3e e590 2bbd 408c b33c
000002f0: a078 ebbd 76e1 c8bd 8da5 083e 397d fa3d
00000300: 603a 883d 2443 7bbd 6386 ba3c 0be6 4d3e
00000310: 8614 6dbb baa5 06bc ad7c 46bd 5609 c8bd
00000320: 57b3 89be f27d 30be d13f 9dbd 83ad 86bc
00000330: 35ec 153e 5adf adbf f345 f7be 8c8b 5abb
00000340: c343 083d f9dc eb3d a6cf 29bf bbb3 a6be
00000350: 62de 6abd 6fb5 823d e495 493a c389 32bf
00000360: 5610 91bf f141 1ebf 127a 03bc 0915 45be
00000370: 0263 2ebf d3b2 39bf a986 9dbe 47fb 9dbe
00000380: 5f9b c0bd 22d4 25be 4fa9 c7bd 4eaf e03c
00000390: 14fb 26bd 545c 80be 0fd4 d83b a1e6 d23d
000003a0: d41b 91be 803d 28be 20fb aebe 88b2 a6bd
000003b0: 9a5b 4fbe 62d2 2bbe 45a8 18bc b805 57bf
000003c0: 2bb9 86be 4193 d9be 6a1a c6be b62d cbbe
000003d0: ae92 91be 1112 a43a 8e27 e9bc b63f c2bd
000003e0: d176 2bbf 5c39 28bf 8b48 d4be e01f c0be
000003f0: f088 76be ee6d 8cbe 0653 adbe 42dc cabc

encoder.2.bias f4 [16]
0.009756626 0.02623784 0.017392477 0.0002121914 -0.031076293 -0.00038788168 0.030123927 -0.03554068
-0.046066284 0.040933542 0.028494064 0.040529765 0.04005951 -0.052931253 -0.029289389 -0.038211405
00000000: 41da 1f3c bdf0 d63c ab7a 8e3c b27f 5e39
00000010: b693 febc 995c cbb9 74c6 f63c 1b93 11bd
00000020: 00b0 3cbd eea9 273d 626c e93c 8a02 263d
00000030: 7115 243d 71ce 58bd 4df0 efbc 9083 1cbd

fc1.weight f4 [2, 12544]
0.040915042 -0.73203397 -0.0455942 0.03233468 -0.35768494 -0.2065568 -0.23298219 -0.33088675
-0.42636526 -0.3393026 -0.19602588 -0.09513533 -0.18422225 -0.23792395 -0.078007355 -0.03795129
-0.07761807 0.023600932 0.12699947 0.18339878 -0.09277656 -0.15056466 0.26153606 0.27056807
0.27475062 0.26862565 -0.04610732 -0.025606288 0.13534611 0.24123323 0.25135043 0.021847788
-0.04014013 -0.033163838 0.091387965 0.05134168 0.03950586 -0.022218151 -0.014609683 -0.02426548
-0.12938374 0.020341018 -0.060548954 -0.054003563 0.08656139 0.23867 0.1943069 0.006115843
-0.35319722 0.3869673 0.16739391 0.010860565 0.011814374 0.006962488 -0.044838 -0.05056123
-0.009072721 -0.6031066 0.11420865 0.01853534 -0.0029996152 0.14004387 -0.21649611 -0.12740296
-0.07290547 -0.0335667 -0.09412252 -0.27922937 -0.07792434 0.1283222 0.19765905 -0.013803489
-0.13612653 0.18818854 0.66486925 0.14616251 0.15656093 0.22870189 0.39180347 0.2828168
-0.0033520747 0.00055041997 0.058951907 -0.10438261 0.13868709 -0.6086129 -0.12480389 -0.15247221
-0.038735356 -0.076681495 -0.15388587 -0.12953608 0.06092474 0.013687769 -0.12087681 0.11186014
-0.2624203 -0.19232796 0.5883925 0.40746868 0.015120432 0.42860264 0.45586616 -0.031842396
0.37843436 0.25204232 -0.06247435 -0.0022470565 -0.009848832 -0.10415649 -0.07157255 -0.06471393
0.4236998 -0.21108717 -0.17308542 -0.29664007 -0.004244252 -0.19397247 0.0046329936 -0.04892465
0.019606331 0.1126585 0.14344865 0.04452242 0.028335568 -0.23211469 -0.11150521 -0.016620226
0.32257488 -0.015881471 0.02619301 0.023879832 -0.15754491 -0.23292169 -0.09721828 0.35914284
0.13600631 0.2458636 0.036759812 -0.009321383 0.31988856 -0.17627916 0.08973042 -0.08232883
0.061457217 -0.062090103 0.065610774 0.044089373 0.17655887 0.2356052 0.08670297 0.091670305
-0.032928545 0.042990327 0.26154175 0.10231372 0.12978533 -0.1716034 0.26841807 0.13215357
0.04547622 0.21136193 -0.06341296 0.06332537 0.0056222514 -0.047744133 -0.03106712 0.046622306
-0.03598877 -0.064287804 0.17967878 0.016524242 -0.014335802 -0.083708495 -0.005991672 0.059876584
0.09421053 0.18378861 -0.002209154 0.086440325 0.061065037 0.1279311 0.053473946 0.14100982
-0.074263014 -0.033149846 -0.035202194 0.0681722 -0.02185652 -0.12396643 -0.047545567 0.016105099
-0.121189326 0.026615879 0.07176917 -0.10484172 -0.0956322 0.057562552 0.058340974 -0.021814186
-0.049233317 0.007592388 0.029512858 0.07293105 0.06221545 0.05889923 0.09719375 0.087764926
-0.017699765 0.10601706 0.054201633 -0.009425064 -0.01550306 -0.025713429 0.08877418 0.10301904
0.011575923 0.016534744 -0.010364271 0.011019051 0.047656246 -0.039402466 0.0547824 0.03148946
0.13150953 0.05952387 0.13246515 0.012329584 0.13643923 -0.0013921477 0.041101255 0.12430371
0.11021527 0.095424175 0.06308854 -0.061502405 0.07995085 0.14631407 -0.012896044 0.123312205
-0.015065606 0.07972675 0.041213453 0.10962562 0.034101572 0.06910409 0.008413645 0.11763445
-0.09330524 0.03450623 -0.01904657 0.0851841 -0.25120068 -0.04544041 0.033098202 0.014419211
00000000: 8896 273d 9466 3bbf fcc0 3abd 5f71 043d
00000010: 7b22 b7be a083 53be e292 6ebe fd69 a9be
00000020: 8c4c dabe 12b9 adbe 02bb 48be 50d6 c2bd
00000030: c2a4 3cbe 56a2 73be 52c2 9fbd d072 1bbd
00000040: 39f6 9ebd be56 c13c 260c 023e e4cc 3b3e
00000050: a301 bebd 9f2d 1abe 0ee8 853e e687 8a3e
00000060: 1dac 8c3e 4d89 893e 07db 3cbd 47c4 d1bc
00000070: 2c98 0a3e d805 773e 01b1 803e 22fa b23c
00000080: fa69 24bd ced6 07bd 9d29 bb3d a74b 523d
00000090: e6d0 213d d702 b6bc 745d 6fbc 66c8 c6bc
000000a0: 2c7d 04be 35a2 a63c 2e02 78bd d732 5dbd
000000b0: 1947 b13d e965 743e 63f8 463e 6967 c83b
000000c0: 44d6 b4be 9420 c63e 4f69 2b3e 83f0 313c
000000d0: 1391 413c 9525 e43b 0da8 37bd 4b19 4fbd
000000e0: c0a5 14bc 3265 1abf 3ae6 e93d 6dd7 973c
000000f0: 3195 44bb a967 0f3e 28b1 5dbe ec75 02be
00000100: 774f 95bd 3c7d 09bd 4fc3 c0bd 27f7 8ebe
00000110: cc96 9fbd e566 033e 2267 4a3e 0728 62bc
00000120: c164 0bbe 7fb4 403e df34 2a3f a0ab 153e
00000130: 8251 203e d430 6a3e 779a c83e 5dcd 903e
00000140: 7bae 5bbb 0f4a 103a 8e77 713d 8dc6 d5bd
00000150: fd03 0e3e 0ece 1bbf 2f99 ffbd ad21 1cbe
00000160: f7a8 1ebd 300b 9dbd 4294 1dbe 1ba5 04be
00000170: 388c 793d aa42 603c 438e f7bd ee16 e53d
00000180: f45b 86be 9ff1 44be e4a0 163f bc9f d03e
00000190: b0bb 773c ce71 db3e 4a67 e93e 2c6d 02bd
000001a0: 26c2 c13e b10b 813e 1be5 7fbd 5a43 13bb
000001b0: ff5c 21bc ff4f d5bd a194 92bd bd88 84bd
000001c0: 2eef d83e 3c27 58be 4e3d 31be 35e1 97be
000001d0: 5e13 8bbb b8a0 46be 5ed0 973b 3765 48bd
000001e0: 759d a03c 80b9 e63d 34e4 123e 245d 363d
000001f0: fe1f e83c 79af 6dbe d85c e4bd 2427 88bc
00000200: 8928 a53e dc19 82bc b992 d63c a39f c33c
00000210: 7453 21be 0683 6ebe 611a c7bd 92e1 b73e
00000220: 3d45 0b3e abc3 7b3e 7591 163d b7b8 18bc
00000230: 6fc8 a33e 8682 34be 95c4 b73d 059c a8bd
00000240: 90ba 7b3d 3152 7ebd f15e 863d 0f97 343d
00000250: d9cb 343e 7d42 713e 5491 b13d a4bd bb3d
00000260: 15e0 06bd a016 303d cde8 853e db89 d13d
00000270: 72e6 043e cdb8 2fbe 186e 893e 4453 073e
00000280: 4645 3a3d 436f 583e a7de 81bd bbb0 813d
00000290: dd3a b83b 5a8f 43bd 7980 febc 08f7 3e3d
000002a0: f668 13bd 53a9 83bd b7fd 373e d95d 873c
000002b0: b6e0 6abc 5c6f abbd ca55 c4bb 2641 753d
000002c0: 73f1 c03d 1533 3c3e 74c7 10bb a007 b13d
000002d0: 551f 7a3d 5f00 033e 7f07 5b3d e164 103e
000002e0: 3517 98bd 22c8 07bd 2d30 10bd de9d 8b3d
000002f0: 720c b3bc 1de2 fdbd 24bf 42bd d7ee 833c
00000300: 1c32 f8bd 8b09 da3c b7fb 923d 41b7 d6bd
00000310: d1da c3bd b6c6 6b3d f2f6 6e3d aab3 b2bc
00000320: e0a8 49bd 91c9 f83b f3c4 f13c e05c 953d
00000330: a1d5 7e3d 5240 713d 840d c73d 19be b33d
00000340: 19ff 90bc 791f d93d 8802 5e3d 956b 1abc
00000350: 8c00 7ebc f8a4 d2bc 3dcf b53d a5fb d23d
00000360: f1a8 3d3c df73 873c e7ce 29bc 4089 343c
00000370: 3233 433d 7b64 21bd 8363 603d 18fb 003d
00000380: 6faa 063e 4dcf 733d f2a4 073e 0602 4a3c
00000390: bab6 0b3e ba78 b6ba ca59 283d f292 fe3d
000003a0: 8bb8 e13d c06d c33d 9134 813d f2e9 7bbd
000003b0: 45bd a33d 5bd3 153e ee49 53bc 1c8b fc3d
000003c0: bbd5 76bc c747 a33d 70cf 283d 6683 e03d
000003d0: 17ae 0b3d 7286 8d3d 63d9 093c 55ea f03d
000003e0: d116 bfbd 6856 0d3d 8d07 9cbc 0075 ae3d
000003f0: 609d 80be b91f 3abd fb91 073d 8e3e 6c3c

fc1.bias f4 [2]
-0.049359847 -0.06083493
00000000: 8d2d 4abd 0c2e 79bd

fc2.weight f4 [2, 12544]
0.03908174 -0.03395213 0.019702766 -0.0060592643 0.05196665 0.18300329 0.091121696 -0.13091044
-0.16271396 -0.016240532 0.21353115 0.15933715 -0.26300028 -0.38587952 -0.25865576 -0.25878495
-0.2955918 -0.29857177 -0.09270349 0.23882772 0.15139022 -0.034653336 -0.12776236 -0.10913789
-0.115351655 -0.13127483 -0.20424156 -0.21461155 0.029379304 0.30464906 0.01994628 -0.2727145
-0.20428951 0.012745684 -0.013565412 0.0845982 -0.1399606 -0.229341 -0.0032963038 -0.152412
-0.30125415 -0.17934518 -0.12344809 -0.06460812 0.10920709 0.09215855 -0.12111613 0.14733867
0.20401704 0.047310557 0.13258329 0.014381607 0.011951808 0.010050852 -0.05142077 -0.10501201
-0.0055596093 0.24259248 0.27000943 -0.038181633 -0.075919256 -0.07220296 -0.2277594 -0.095979854
-0.30525953 -0.27167413 -0.36431193 -0.13520852 0.18137285 -0.04229873 -0.1605608 0.16464843
0.07565817 -0.032492507 0.07365495 0.0077395765 0.23029743 -0.12263173 -0.17488815 -0.13868545
0.0075020147 0.0032051634 0.32537457 0.12859233 0.036699276 0.26209185 0.22518595 0.011398309
-0.122325905 -0.0859288 0.07761054 0.18017374 -0.22088885 -0.0966163 -0.4240915 -0.16224228
0.47491527 0.4562583 0.11994022 0.08411622 0.09119826 -0.08211026 0.07211068 0.12531531
0.057043098 -0.1667683 -0.13476482 -0.21521726 -0.0116803795 0.013874839 0.09978063 0.0848509
-0.1551573 -0.13555321 -0.076496966 -0.055146392 -0.07261169 -0.026165385 0.013960821 0.27779222
-0.10995617 -0.1474 -0.06435567 0.3081814 0.56180197 0.4968432 0.052345388 -0.205625
-0.10134576 0.21036439 0.23917863 0.006910027 -0.1724718 0.011223228 0.32464194 0.043824073
0.15114504 0.16321403 0.104690015 0.14578056 -0.11331295 -0.23765163 -0.20913042 -0.1004262
-0.11103655 0.027206464 0.10524677 0.031927872 -0.17559183 -0.30654922 -0.27769637 0.012277682
0.288412 0.31720766 0.36821866 0.01622585 -0.26007345 0.19807656 0.31480008 0.17168738
0.01363391 0.107899316 0.03735943 -0.046542667 -0.15410858 -0.18887652 0.15507886 -0.0015188667
-0.085766494 -0.22196566 -0.22177032 0.034170173 -0.0074261525 0.01578788 0.10135973 -0.028187651
-0.3398819 -0.46676895 -0.2749179 -0.17989926 0.061364993 0.20937599 0.16556114 -0.17436221
0.012002246 0.34105572 0.12099941 -0.07995129 -0.21552016 0.11115193 0.08650157 -0.12070551
-0.0041236808 -0.15715255 -0.16403435 -0.08960384 0.035753664 -0.18307799 -0.10301691 -0.084606096
-0.018741036 0.014180891 -0.04864889 -0.15032373 -0.13435473 -0.20024718 -0.39414194 -0.177642
0.20096743 0.05401888 -0.2960078 0.037955128 0.1724343 0.07458135 0.025161332 -0.10193249
-0.16549794 -0.09251615 -0.12756677 -0.24994102 -0.26895812 -0.06356699 -0.21765791 -0.178903
-0.011278983 -0.1540182 -0.04578739 -0.05372706 -0.10379353 0.0477102 -0.04883876 -0.13061014
-0.17735471 -0.08451749 -0.291089 -0.003104692 0.21938954 -0.10291521 -0.039513536 0.14348257
-0.1623205 -0.18189925 -0.0007275782 0.036521547 0.13281697 -0.09971292 0.05329434 0.03664109
-0.045897678 0.08203336 -0.093265586 -0.17915608 0.026663927 -0.008769538 -0.03253163 -0.11246611
00000000: 2d14 203d 6311 0bbd b267 a13c cb8c c6bb
00000010: fbda 543d 3765 3b3e 039e ba3d 630d 06be
00000020: 7d9e 26be dd0a 85bc e9a7 5a3e 4729 233e
00000030: f9a7 86be 0092 c5be 876e 84be 767f 84be
00000040: cf57 97be 66de 98be 54db bdbd 418f 743e
00000050: 0a06 1b3e a8f0 0dbd 23d4 02be b083 dfbd
00000060: 7d3d ecbd e96c 06be b324 51be 21c3 5bbe
00000070: deac f03c f6fa 9b3e 6266 a33c 3ca1 8bbe
00000080: 4531 51be 46d3 503c 7641 5ebc d241 ad3d
00000090: d551 0fbe 5ed8 6abe cd06 58bb e411 1cbe
000000a0: fc3d 9abe 43a6 37be 5ad2 fcbd 4351 84bd
000000b0: f8a7 df3d 9fbd bc3d bc0b f8bd f3df 163e
000000c0: d8e9 503e b7c8 413d eac3 073e d5a0 6b3c
000000d0: 84d1 433c 54ac 243c 969e 52bd 8910 d7bd
000000e0: 622d b6bb 2a6a 783e ad3e 8a3e 5864 1cbd
000000f0: 8e7b 9bbd 25df 93bd c339 69be 1691 c4bd
00000100: fa4a 9cbe df18 8bbe 1887 babe 1a74 0abe
00000110: ceb9 393e 6f41 2dbd 0d6a 24be 9999 283e
00000120: acf2 9a3d dd16 05bd 68d8 963d 469c fd3b
00000130: 17d3 6b3e 5826 fbbd e115 33be 8f03 0ebe
00000140: 76d3 f53b b80d 523b 7f97 a63e b5ad 033e
00000150: fb51 163d e730 863e 2597 663e f9bf 3a3c
00000160: 0186 fabd 70fb afbd 46f2 9e3d 777f 383e
00000170: b030 62be c4de c5bd 8522 d9be d722 26be
00000180: 1828 f33e b09a e93e 38a3 f53d 2045 ac3d
00000190: 27c6 ba3d 6d29 a8bd c4ae 933d a852 003e
000001a0: 06a6 693d 4fc5 2abe caff 09be ea61 5cbe
000001b0: 105f 3fbc 4b53 633c c959 cc3d 4fc6 ad3d
000001c0: 8ee1 1ebe 76ce 0abe 71aa 9cbd 2fe1 61bd
000001d0: 70b5 94bd ca58 d6bc edbb 643c c83a 8e3e
000001e0: b330 e1bd 07f0 16be e8cc 83bd f4c9 9d3e
000001f0: 41d2 0f3f 3b62 fe3e 1e68 563d 5c8f 52be
00000200: 5e8e cfbd c369 573e 3eeb 743e 826d e23b
00000210: 739c 30be a1e1 373c 7837 a63e df80 333d
00000220: c4c5 1a3e 9421 273e b867 d63d 8047 153e
00000230: 9f10 e8bd f35a 73be 4926 56be 40ac cdbd
00000240: 2167 e3bd 17e0 de3c 9e8b d73d cdc6 023d
00000250: 58ce 33be 05f4 9cbe 382e 8ebe 5528 493c
00000260: bdaa 933e 0b69 a23e 2887 bc3e 13ec 843c
00000270: 5928 85be 95d4 4a3e 7a2d a13e d1ce 2f3e
00000280: c360 5f3c 51fa dc3d 3406 193d 86a3 3ebd
00000290: a4ce 1dbe d968 41be fecc 1e3e b614 c7ba
000002a0: 58a6 afbd f74a 63be c217 63be 06f6 0b3d
000002b0: 1557 f3bb 9655 813c b195 cf3d cae9 e6bc
000002c0: 0005 aebe 57fc eebe 0ac2 8cbe 8337 38be
000002d0: dc59 7b3d a966 563e dc88 293e 028c 32be
000002e0: 12a5 443c db9e ae3e 8ace f73d 80bd a3bd
000002f0: 51b1 5cbe a0a3 e33d bc27 b13d 7334 f7bd
00000300: f11f 87bb 99ec 20be 9ff8 27be 3882 b7bd
00000310: 6f72 123d cc78 3bbe 88fa d2bd f645 adbd
00000320: cd86 99bc f856 683c 0f44 47bd 77ee 19be
00000330: 4994 09be 990d 4dbe f9cc c9be c9e7 35be
00000340: 68ca 4d3e e742 5d3d 568e 97be d676 1b3d
00000350: 9e92 303e 1bbe 983d 231f ce3c fbc1 d0bd
00000360: 4b78 29be 1b79 bdbd dda0 02be 8af0 7fbe
00000370: e1b4 89be 692f 82bd b7e1 5ebe 5932 37be
00000380: 7ccb 38bc f2b6 1dbe 8f8b 3bbd e810 5cbd
00000390: b491 d4bd c56b 433d 270b 48bd aabe 05be
000003a0: 799c 35be 8117 adbd 9e09 95be 1778 4bbb
000003b0: a7a7 603e 36c5 d2bd f2d8 21bd 18ed 123e
000003c0: 5837 26be cc43 3abe f2ba 3eba 9e97 153d
000003d0: 2c01 083e 4a36 ccbd 2a4b 5a3d f814 163d
000003e0: 34ff 3bbd 1b01 a83d 0702 bfbd b174 37be
000003f0: 4f6e da3c 1cae 0fbc e33f 05bd a254 e6bd

fc2.bias f4 [2]
-0.33646414 -0.37152156
00000000: 0745 acbe 1338 bebe

fc3.weight f4 [12544, 2]
0.51775527 0.45973912 0.5024658 0.0067652934 0.23169847 0.068699956 -0.8037398 0.041751545
-0.067042425 -0.54716253 -0.40949133 0.6136273 -0.2876668 0.95855117 -0.37246048 0.21522193
-0.06923536 0.40606552 -0.17891334 0.7354063 -0.6959439 0.13962184 -0.8118802 0.18687046
0.92932576 -0.05448454 0.9709768 -0.13699037 0.14652282 0.7652118 0.8967204 0.3396887
-0.6986395 0.24166615 -1.0452851 -0.51973724 0.40459985 0.1531699 0.7128515 0.0070954566
0.25693014 -0.5684485 -0.42470336 -0.37660348 -0.41796058 -0.20009798 -0.7376078 0.4203677
-0.49512252 0.09636807 -0.69325274 0.38722154 -0.7547965 0.11539951 0.70007974 -0.17535318
0.36974448 0.02609642 0.27102378 -0.48448843 0.18966922 0.6287376 0.49433875 0.59048337
0.08671837 0.85527 0.5324786 -0.037932932 -0.20986627 -0.27875894 -0.16893941 -0.77657163
-0.32472986 0.18868217 0.5695688 0.5139312 0.31801084 0.03371495 -0.29993194 -0.5481496
-0.2224003 -0.31386292 -0.34136757 -0.37512434 0.47086677 -0.15034205 0.81785035 -0.14587891
0.65726584 -0.4068668 0.27414826 -0.2886922 0.50286025 -0.21467365 -0.6079768 -0.33766514
-0.2678888 0.63895017 0.4645297 0.035034955 0.14932853 -0.8733006 0.62747717 0.60387355
-0.09349799 -0.7533254 -0.7552235 -0.092527635 0.08977102 -0.22202395 0.33573073 -1.2008507
0.64458567 -0.59935194 0.09031331 -0.22283551 -0.2141481 -0.1584848 -0.19150496 0.33700258
0.12011423 0.064984165 -0.7103881 -0.5183048 -0.35115618 0.6293874 0.5771439 0.4834253
-0.21808521 0.18993317 -0.32683608 0.13529372 -0.04306282 -0.71848196 0.3302222 -0.17836706
0.47367612 0.22922716 -0.41805935 0.48456043 0.40425247 -0.19918522 0.23287807 0.2817518
-0.7670644 -0.8027416 0.011464981 0.27461073 -0.5954096 -0.2739738 -0.12631223 0.22532478
-0.30575514 0.63987046 -0.88042754 -0.21901353 -0.6309619 0.312824 0.33398652 -0.018361928
0.26010343 -0.33838 0.6313625 0.32309008 -0.044028055 0.7192868 -0.43522996 -0.71625406
-0.64161307 -0.22131425 0.15218565 0.78242683 0.27126023 -0.5073686 -0.47175503 0.61824834
0.13246097 0.26371908 -0.56017464 0.07116379 0.83449394 0.41103095 -0.48946792 -0.5498587
0.6814269 0.35535914 -0.44415933 0.45136198 -0.10383949 -0.6495955 -0.3532858 0.6140854
0.049212616 0.40845293 -0.41239575 0.13390468 -0.8768692 0.48784444 0.26375297 -0.62739486
-0.687496 -0.6498774 -0.3900874 0.43569085 0.3941088 -0.3518952 -0.37549138 -0.6459899
-0.16521595 -0.537269 -0.027020948 0.53206897 -0.9434587 -0.86051464 -0.20737131 -0.7199741
-0.03330507 -1.0001278 0.9947981 -0.31815982 -0.12263142 -0.43891934 -0.18984884 0.47629842
0.4546978 -0.37824053 -0.1657392 0.3537874 0.7863148 0.2879516 0.55345595 -0.6897153
0.31666166 0.6059567 -0.61754405 0.12560411 -0.25118974 0.37117338 0.017113885 0.16696994
-0.065697014 0.80481297 -0.66540354 0.60013664 -0.349385 0.08703557 0.27211574 -0.05187475
-0.26084265 0.28157935 -0.41685823 -0.11667685 0.18557017 -0.068573184 -0.15538123 -0.6558816
00000000: 9c8b 043f ed62 eb3e 99a1 003f 65af dd3b
00000010: 5d42 6d3e 90b2 8c3d e4c1 4dbf ab03 2b3d
00000020: 8a4d 89bd d812 0cbf d9a8 d1be ae16 1d3f
00000030: 1049 93be 9c63 753f 24b3 bebe 2363 5c3e
00000040: 45cb 8dbd d2e7 cf3e 0f35 37be 9643 3c3f
00000050: 6129 32bf 07f9 0e3e 61d7 4fbf f85a 3f3e
00000060: 4be8 6d3f 2e2b 5fbd f091 783f 3447 0cbe
00000070: 140a 163e ece4 433f 788f 653f adeb ad3e
00000080: 0ada 32bf 5577 773e e7cb 85bf 800d 05bf
00000090: b627 cf3e 92d8 1c3e 707d 363f 0181 e83b
000000a0: 598c 833e d785 11bf b872 d9be 2cd2 c0be
000000b0: eefe d5be 7ce6 4cbe ddd3 3cbf 6f3a d73e
000000c0: b380 fdbe 9f5c c53d 0379 31bf e741 c63e
000000d0: 583a 41bf 9456 ec3d 6d38 333f c98f 33be
000000e0: 264f bd3e 29c8 d53c a1c3 8a3e de0e f8be
000000f0: a638 423e f3f4 203f f819 fd3e eb29 173f
00000100: 6799 b13d faf2 5a3f 8450 083f 905f 1bbd
00000110: 2fe7 56be 7eb9 8ebe 74fe 2cbe 66cd 46bf
00000120: fe42 a6be e635 413e 43cf 113f ff90 033f
00000130: 51d2 a23e b018 0a3d ae90 99be 8853 0cbf
00000140: e7bc 63be a4b2 a0be bbc7 aebe 4c10 c0be
00000150: 7315 f13e 44f3 19be a45e 513f 4861 15be
00000160: 9342 283f d850 d0be 295d 8c3e 77cf 93be
00000170: 73bb 003f 69d3 5bbe 5ea4 1bbf 72e2 acbe
00000180: b928 89be 3d92 233f d6d6 ed3e d080 0f3d
00000190: 94e9 183e a190 5fbf 58a2 203f 7597 1a3f
000001a0: e07b bfbd efd9 40bf 5456 41bf 217f bdbd
000001b0: ded9 b73d 3f5a 63be e6e4 ab3e 7ab5 99bf
000001c0: 9103 253f 216f 19bf 2ff6 b83d fe2e 64be
000001d0: a449 5bbe d749 22be e019 44be 9a8b ac3e
000001e0: 73fe f53d 6b16 853d ffdb 35bf a0af 04bf
000001f0: beca b3be 881f 213f b4bf 133f 8583 f73e
00000200: bb51 5fbe d77d 423e 0f57 a7be 708a 0a3e
00000210: a462 30bd 6fee 37bf e212 a93e dba5 36be
00000220: ad85 f23e 86ba 6a3e e00b d6be 4e18 f83e
00000230: 2efa ce3e 36f7 4bbe 9777 6e3e c641 903e
00000240: 555e 44bf 7980 4dbf 9ed7 3b3c c799 8c3e
00000250: c36c 18bf 4b46 8cbe fe57 01be 8abb 663e
00000260: f08b 9cbe 8dce 233f b363 61bf 1545 60be
00000270: b886 21bf 782a a03e 4800 ab3e c16b 96bc
00000280: 472c 853e 2540 adbe f9a0 213f 106c a53e
00000290: c356 34bd 2e23 383f 76d6 debe 6d5c 37bf
000002a0: c140 24bf 34a0 62be 8ed6 1b3e 204d 483f
000002b0: 9fe2 8a3e e9e2 01bf e089 f1be 8645 1e3f
000002c0: d9a3 073e 3006 873e 9b67 0fbf 52be 913d
000002d0: 65a1 553f a672 d23e 8a9b fabe 8ac3 0cbf
000002e0: fe71 2e3f a2f1 b53e da68 e3be eb18 e73e
000002f0: cca9 d4bd e44b 26bf e0e1 b4be b334 1d3f
00000300: 2b93 493d be20 d13e 8925 d3be 4f1e 093e
00000310: 807a 60bf bfc6 f93e a10a 873e f39c 20bf
00000320: bdff 2fbf 5e5e 26bf 89b9 c7be df12 df3e
00000330: a1c8 c93e 9c2b b4be 6840 c0be 985f 25bf
00000340: 5f2e 29be 768a 09bf 095b ddbc ac35 083f
00000350: 8286 71bf b04a 5cbf 2559 54be 3950 38bf
00000360: e66a 08bd 3004 80bf 17ab 7e3f d8e5 a2be
00000370: 2f26 fbbd 09ba e0be bc67 42be 63dd f33e
00000380: 26ce e83e bea8 c1be 89b7 29be 9f23 b53e
00000390: ed4b 493f 646e 933e 4aaf 0d3f 2f91 30bf
000003a0: 7a21 a23e fa1f 1b3f 5e17 1ebf 5d9e 003e
000003b0: f19b 80be 700a be3e 6b32 8c3c 2bfa 2a3e
000003c0: 288c 86bd 3908 4e3f e357 2abf 8ea2 193f
000003d0: 97e2 b2be b43f b23d c152 8b3e 9e7a 54bd
000003e0: 2b8d 85be 2b2b 903e 716e d5be 46f4 eebd
000003f0: 1b06 3e3e 1970 8cbd 421c 1fbe dbe7 27bf

fc3.bias f4 [12544]
-0.46941835 -0.56518245 0.67379737 -0.04706403 0.097101994 0.6874099 -0.014296635 -0.2049381
0.42253348 -0.2110296 0.2061433 0.45003024 0.032308344 -0.275538 -0.37563634 -0.2269632
-0.015979858 0.39005157 0.09332866 0.26989314 0.53109205 -0.111893035 0.83935976 -0.64925975
0.9156808 -0.50563496 0.1807071 -0.29695356 -0.679466 0.9523999 -0.750934 0.47427627
0.6681822 0.41129988 -0.39578786 0.45264083 0.71345663 -0.23455732 -0.8958628 -0.78414047
-0.10646973 -0.28120542 -0.83424115 -0.46534437 0.55105126 -0.6820199 0.34605628 0.6958894
-0.6538719 -0.2583959 -0.058193784 -0.87492526 0.2367494 -0.4155022 -1.5573883 -0.47984007
0.06993271 -0.76788056 0.21457621 -0.41411248 0.65664494 -0.65118015 0.4410703 0.37700903
-0.3024248 -0.4981332 0.9647961 0.17442945 0.26008436 -0.79150796 0.4048191 0.069976434
-0.10987801 0.6310092 0.37208843 0.8149756 0.55775833 0.2748826 0.39339757 -0.100967996
0.26600567 -0.40825966 0.21229921 -0.755482 -1.156762 -0.4646372 0.0689133 0.070925176
0.23640428 -0.31570393 -0.7007448 0.30485666 -0.37835243 0.5173464 0.24522856 0.7880187
-0.34259897 0.30868357 -0.8035665 -0.5025371 0.30355415 -0.28202465 -0.31597254 -0.4337528
-0.3285332 0.3142648 0.49905333 0.53817046 -0.41291672 0.2947427 0.12802172 0.036965262
-0.8495736 0.2987597 -0.3937746 -0.28844988 -0.101657555 -0.53369856 -0.6684885 0.61460817
-0.70193654 -0.3092406 0.3959665 0.44211513 0.54612875 -0.5749912 -0.054608606 0.76520365
0.9340502 -0.49566522 -0.61840194 -0.19021216 -0.024481764 0.18293756 0.22722091 0.6781632
-0.13348265 -0.34070972 0.38634574 0.28341195 -0.4928632 -0.59040993 0.3401291 -0.09071292
0.5169025 0.38010904 -0.5235335 -0.16567099 -0.16877413 0.4643928 0.108352415 0.6758501
0.43390098 -0.15911584 0.3459048 0.040873483 0.108058415 0.6803709 -0.6422288 -0.10798476
-0.5403602 0.80062366 0.25278816 -0.6031216 0.095438145 0.6361673 -0.97827935 -0.01359391
-0.7544198 -0.29850152 -0.019323137 -1.1681952 -0.3351147 -0.026766812 0.45698413 0.35665083
-0.0027161755 -0.16582349 -0.42447197 -0.34283257 0.1456867 0.45150375 0.2107401 0.59891284
-0.5102128 0.52480173 0.5079394 -0.115914 -0.5290766 0.34731522 -0.34091243 -0.1721015
-0.17578731 -0.8393233 -0.017174026 0.08929558 -0.28436807 -0.2187142 0.6196446 0.8122404
-0.79966044 0.033493973 -0.4271842 0.5616224 -0.3374008 -0.22095783 0.34797543 0.11186236
-0.5214654 0.646801 -0.44233418 0.22584827 -0.45534888 -0.4195465 -0.1859626 0.3019387
-0.40059033 0.2676964 -0.23926458 0.10832302 -0.583966 0.072254285 -0.116007775 -0.27830446
-0.17229365 0.15725462 -0.30408347 0.78680295 0.63169515 0.4475008 -0.025448387 0.3103472
-0.1409936 -0.18995625 -0.43925923 0.48578128 -0.6122447 0.34430823 -0.44668448 -0.3261616
-0.25406522 -0.3107858 0.25835752 -0.4095846 0.692174 -0.5252537 -0.15932517 -0.37347963
0.22460599 0.12944493 -0.54156584 0.433558 0.18740466 0.6999926 0.3327321 -0.08099514
00000000: 9a57 f0be ccaf 10bf fc7d 2c3f 36c6 40bd
00000010: 69dd c63d 18fa 2f3f 6f3c 6abc 4bdb 51be
00000020: 4f56 d83e 2518 58be 3b17 533e 5d6a e63e
00000030: c155 043d 5113 8dbe 6853 c0be 0b69 68be
00000040: 31e8 82bc d7b4 c73e 1923 bf3d 6f2f 8a3e
00000050: a6f5 073f 2d28 e5bd 48e0 563f e335 26bf
00000060: 0f6a 6a3f 4b71 01bf 480b 393e 4c0a 98be
00000070: 7cf1 2dbf 7bd0 733f 363d 40bf 57d4 f23e
00000080: fd0d 2b3f e695 d23e b5a4 cabe 8ac0 e73e
00000090: 18a5 363f cb2f 70be 4457 65bf 6ebd 48bf
000000a0: cd0c dabd 28fa 8fbe d490 55bf 9e41 eebe
000000b0: b211 0d3f db98 2ebf 4a2e b13e cf25 323f
000000c0: 2664 27bf 784c 84be 9b5c 6ebd 1afb 5fbf
000000d0: 6f6e 723e b4bc d4be 8058 c7bf 99ad f5be
000000e0: e138 8f3d d293 44bf deb9 5b3e 8d06 d4be
000000f0: e219 283f beb3 26bf f7d3 e13e 5407 c13e
00000100: 6cd7 9abe 510b ffbe e1fc 763f a29d 323e
00000110: c729 853e 44a0 4abf 7344 cf3e ce4f 8f3d
00000120: b907 e1bd d289 213f 6082 be3e 3ea2 503f
00000130: 40c9 0e3f 6abd 8c3e 686b c93e 4fc8 cebd
00000140: e531 883e 6907 d1be f764 593e 4567 41bf
00000150: c710 94bf ede4 edbe 6b22 8d3d 3841 913d
00000160: f713 723e f2a3 a1be 0364 33bf 2c16 9c3e
00000170: 69b7 c1be d070 043f 321d 7b3e 98bb 493f
00000180: 2269 afbe c60b 9e3e 89b6 4dbf 45a6 00bf
00000190: 736b 9b3e 8965 90be 27c7 a1be d914 debe
000001a0: 8135 a8be 51e7 a03e eb83 ff3e 8ac5 093f
000001b0: d269 d3be 84e8 963e 2018 033e e368 173d
000001c0: a87d 59bf 08f7 983e d39c c9be b4af 93be
000001d0: d631 d0bd 78a0 08bf 1022 2bbf f656 1d3f
000001e0: 1db2 33bf c954 9ebe 1fbc ca3e ea5c e23e
000001f0: 18cf 0b3f a032 13bf 46ad 5fbd 63e4 433f
00000200: ea1d 6f3f d5c7 fdbe 974f 1ebf fac6 42be
00000210: fb8d c8bc fc53 3b3e 99ac 683e 1a9c 2d3f
00000220: adaf 08be 8171 aebe 1ccf c53e 5f1b 913e
00000230: 9158 fcbe 1b25 17bf 6725 ae3e b2c7 b9bd
00000240: b953 043f a79d c23e 4b06 06bf a8a5 29be
00000250: 20d3 2cbe e5c4 ed3e dfe7 dd3d 8304 2d3f
00000260: 4528 de3e 43ef 22be 6f1a b13e f46a 273d
00000270: bb4d dd3d ca2c 2e3f 1b69 24bf 1d27 ddbd
00000280: 0c55 0abf acf5 4c3f 736d 813e 2d66 1abf
00000290: 1375 c33d dcdb 223f 8470 7abf feb8 5ebc
000002a0: a821 41bf 31d5 98be 8e4b 9ebc 6c87 95bf
000002b0: 2794 abbe 1346 dbbc d3f9 e93e f09a b63e
000002c0: dd01 32bb a2cd 29be 6454 d9be c087 afbe
000002d0: e52e 153e 802b e73e 41cc 573e 5a52 193f
000002e0: 4e9d 02bf 6859 063f 5108 023f 5264 edbd
000002f0: 9071 07bf 4dd3 b13e 138c aebe 603b 30be
00000300: 9701 34be e4dd 56bf 8bb0 8cbc 9ae0 b63d
00000310: b198 91be 9ef6 5fbe 07a1 1e3f fdee 4f3f
00000320: 8cb6 4cbf fa30 093d e3b7 dabe 7cc6 0f3f
00000330: ccbf acbe c542 62be d629 b23e 1818 e53d
00000340: c27e 05bf c094 253f a079 e2be c544 673e
00000350: 7d23 e9be cdce d6be fb6c 3ebe b697 9a3e
00000360: 2d1a cdbe 810f 893e c601 75be 76d8 dd3d
00000370: cc7e 15bf 0efa 933d 7c95 edbd ec7d 8ebe
00000380: bf6d 30be 5b07 213e d4b0 9bbe eb6b 493f
00000390: c6b6 213f d31e e53e 2379 d0bc d4e5 9e3e
000003a0: a060 10be e483 42be 96e6 e0be 53b8 f83e
000003b0: 12bc 1cbf 2b49 b03e d4b3 e4be a7fe a6be
000003c0: d614 82be 511f 9fbe 7047 843e 13b5 d1be
000003d0: 5132 313f 0777 06bf 2326 23be b938 bfbe
000003e0: 1dff 653e 368d 043e 0fa4 0abf 50fb dd3e
000003f0: 02e7 3f3e b732 333f dd5b aa3e c8e0 a5bd

decoder.1.weight f4 [16, 6, 5, 5]
0.031582575 -0.1549402 0.14804094 0.1327605 -0.0136896 -0.17894049 0.11170514 0.10342821
0.31022778 0.2652362 0.091654226 0.1265036 0.0675404 0.14000794 -0.10475812 0.068556204
-0.08824594 -0.2766968 -0.045978654 -0.18412262 -0.2663291 0.2872305 0.1631404 -0.11365103
0.15642262 -0.10813632 -0.27206737 0.110131726 0.1418244 0.009543933 0.07087266 0.22961773
0.011291026 0.008614304 0.0065101953 -0.3231597 -0.36458382 -0.14126842 0.0953044 -0.0067466046
-0.23282304 0.041332327 -0.029892994 -0.048863616 0.17625676 0.21720736 -0.109424904 0.09429441
0.28509554 -0.19912106 0.0973389 0.050970577 0.18629934 0.05102795 0.29249933 -0.15843202
-0.038922768 -0.11663645 0.25226274 -0.031863492 0.321406 0.07813654 -0.22475572 0.13411474
0.04328199 0.39704874 -0.29957518 0.01500832 -0.11487528 -0.021179866 0.22398368 -0.28208286
0.085388586 -0.22100309 -0.1339227 -0.20012403 0.2621553 -0.04633797 -0.027826248 0.119965
-0.14373878 0.111718446 0.0040210295 -0.08137795 -0.22888649 -0.086135164 -0.07181681 -0.08701301
-0.07928471 0.14494102 -0.263728 -0.25719503 -0.2736091 -0.15179145 0.14566536 -0.13331182
-0.008272155 0.03297205 -0.08772491 -0.21174699 0.006145296 0.12014334 -0.02705144 0.019756677
-0.041561395 -0.10331278 -0.3034269 0.19189075 0.054535683 -0.107451096 0.010262848 0.30591106
-0.3501172 -0.044728447 -0.2535495 -0.17276113 -0.1286763 -0.1642283 -0.06303011 -0.09596891
-0.005234573 -0.3036648 -0.24629037 -0.3177408 -0.06746569 -0.25650492 -0.03233728 -0.042197756
-0.035192903 -0.085877724 -0.21032287 -0.025795149 0.075885765 0.19149831 -0.08803327 -0.28615037
0.19289352 0.17739911 0.28785625 0.045733463 -0.16039525 0.321999 0.08747623 0.05049551
-0.03972515 -0.19553316 0.35237208 0.13265795 0.17578207 0.102096066 0.33194342 0.008849962
-0.07958478 -0.024245448 0.053215723 0.029224332 -0.12170278 -0.04743412 0.018575214 0.22440684
-0.13933131 -0.009384212 -0.07713442 -0.01710862 0.0010177203 -0.2677211 0.27451432 0.3345714
0.0948551 -0.22375038 -0.050755616 -0.12822647 -0.06347227 0.14521463 -0.45616916 0.034286324
-0.46023613 0.050061837 0.20276895 -0.21830036 0.33455223 -0.0800529 0.07802305 -0.053600796
-0.11821537 0.31275132 0.28549808 0.19519337 0.01003159 -0.08917953 0.1323434 -0.21310805
0.0140091805 -0.041552704 -0.24311998 -0.30722797 0.03621247 0.037665702 0.034885164 -0.12386963
0.25872177 -0.26809856 0.058884993 -0.39694965 -0.16908996 -0.101403825 0.036828667 0.09122311
0.094847 0.15338822 0.11771809 0.21797095 0.27071944 -0.2133094 0.444216 -0.29495966
-0.2091135 0.45174634 0.4075636 0.23279995 0.17117982 0.06673892 0.15386334 -0.11474736
-0.11495452 -0.16031334 -0.21425009 -0.06812639 -0.083634235 -0.06691848 -0.24844812 0.119746126
-0.1185939 -0.19783682 0.12074883 -0.08525552 -0.10149144 -0.13588879 -0.21550368 -0.04909936
-0.15509984 -0.2840626 0.022258278 0.12898819 -0.03800376 0.3418722 0.2735583 0.19677551
0.2581655 -0.026256096 -0.06897376 0.19268297 0.07114828 -0.036339942 -0.095430955 0.13004856
00000000: bb5c 013d a5a8 1ebe 0b98 173e 5ef2 073e
00000010: 584a 60bc 2d3c 37be aac5 e43d 2bd2 d33d
00000020: 2dd6 9e3e 0acd 873e 36b5 bb3d 298a 013e
00000030: 9f52 8a3d 3e5e 0f3e 6d8b d6bd 3267 8c3d
00000040: 4aba b4bd 34ab 8dbe 1d54 3cbd a48a 3cbe
00000050: 4a5c 88be e00f 933e 470e 273e dfc1 e8bd
00000060: 402d 203e 9376 ddbd 6a4c 8bbe be8c e13d
00000070: 6a3a 113e 285e 1c3c af25 913d e920 6b3e
00000080: fffd 383c 0223 0d3c 7a53 d53b 3075 a5be
00000090: bbaa babe aba8 10be f42e c33d 9f12 ddbb
000000a0: 2a69 6ebe 164c 293d 27e2 f4bc 3725 48bd
000000b0: a77c 343e 9b6b 5e3e 2a1a e0bd 6d1d c13d
000000c0: 0bf8 913e 64e6 4bbe 9e59 c73d 86c6 503d
000000d0: 41c5 3e3e af02 513d 79c2 953e 013c 22be
000000e0: 7b6d 1fbd 17df eebd 9528 813e 4b83 02bd
000000f0: 548f a43e 0d06 a03d 5d26 66be 6055 093e
00000100: 7548 313d f949 cb3e eb61 99be 75e5 753c
00000110: bb43 ebbd 6681 adbc fa5b 653e 2a6d 90be
00000120: 36e0 ae3d a24e 62be 0823 09be 50ed 4cbe
00000130: 3839 863e e2cc 3dbd dff3 e3bc 36b0 f53d
00000140: 4230 13be a4cc e43d d7c2 833b 7ca9 a6bd
00000150: 3861 6abe a267 b0bd b114 93bd e133 b2bd
00000160: 0660 a2bd 6b6b 143e 5b07 87be 11af 83be
00000170: 7e16 8cbe 386f 1bbe 4d29 153e e582 08be
00000180: ef87 07bc b30d 073d 1ea9 b3bd 34d4 58be
00000190: 7b5e c93b b60d f63d fb9a ddbc c1d8 a13c
000001a0: 483c 2abd a795 d3bd c55a 9bbe 027f 443e
000001b0: cf60 5f3d 520f dcbd 8125 283c 60a0 9c3e
000001c0: 9042 b3be 2d35 37bd 3dd1 81be 4be8 30be
000001d0: b8c3 03be 772b 28be ee15 81bd 598b c4bd
000001e0: c886 abbb f479 9bbe 8b33 7cbe ecae a2be
000001f0: 742b 8abd 9d54 83be 1974 04bd 8ed7 2cbd
00000200: 6f26 10bd a9e0 afbd e15e 57be 5950 d3bc
00000210: ff69 9b3d 2218 443e c94a b4bd 4d82 92be
00000220: e185 453e 1da8 353e e561 933e 0353 3b3d
00000230: a73e 24be 0edd a43e bd26 b33d 61d4 4e3d
00000240: d7b6 22bd d839 48be 1d6a b43e 7cd7 073e
00000250: 3700 343e be17 d13d 7df4 a93e 6eff 103c
00000260: 58fd a2bd 649e c6bc bbf8 593d de67 ef3c
00000270: 4f3f f9bd 484a 42bd 0c2b 983c e8ca 653e
00000280: deac 0ebe 3dc0 19bc a7f8 9dbd 6027 8cbc
00000290: 0765 853a bd12 89be 248d 8c3e f14c ab3e
000002a0: 6443 c23d d21e 65be 1fe5 4fbd cd4d 03be
000002b0: c0fd 81bd 25b3 143e 018f e9be d16f 0c3d
000002c0: 12a4 ebbe a40d 4d3d aaa2 4f3e 218a 5fbe
000002d0: 6e4a ab3e c6f2 a3bd 8dca 9f3d 828c 5bbd
000002e0: e61a f2bd f120 a03e ce2c 923e c5e0 473e
000002f0: 8a5b 243c c2a3 b6bd 0785 073e ff38 5abe
00000300: c386 653c 2b33 2abd 72f4 78be fc4c 9dbe
00000310: 8753 143d 5a47 1a3d bfe3 0e3d 5caf fdbd
00000320: 2e77 843e 3744 89be 6431 713d fc3c cbbe
00000330: eb25 2dbe cfac cfbd a8d9 163d 2fd3 ba3d
00000340: 253f c23d cd11 1d3e 2f16 f13d c733 5f3e
00000350: bd9b 8a3e c86d 5abe 4870 e33e f404 97be
00000360: d921 56be 4c4b e73e 2dac d03e 1c63 6e3e
00000370: c349 2f3e 6aae 883d 5a8e 1d3e aa00 ebbd
00000380: 466d ebbd 2e29 24be 6064 5bbe d985 8bbd
00000390: 6d48 abbd 8e0c 89bd 2f69 7ebe 753d f53d
000003a0: 5ce1 f2bd bc95 4abe 2a4b f73d 729a aebd
000003b0: beda cfbd 6e26 0bbe ffac 5cbe 691c 49bd
000003c0: 7ed2 1ebe a770 91be fe56 b63c 7b15 043e
000003d0: d5a9 1bbd df09 af3e d50f 8c3e 857f 493e
000003e0: 452e 843e 0617 d7bc 1d42 8dbd af4e 453e
000003f0: 30b6 913d 31d9 14bd 4e71 c3bd 732b 053e

decoder.1.bias f4 [6]
0.1071195 0.018488752 -0.00689601 0.15190622 -0.11301651 -0.24626803
00000000: 7861 db3d b975 973c edf7 e1bb 4e8d 1b3e
00000010: 3375 e7bd b02d 7cbe

decoder.3.weight f4 [6, 1, 5, 5]
-0.11894927 -0.11671965 0.011126683 0.13593882 0.11023697 -0.10037006 -0.044261243 0.18231924
0.3060831 0.19524306 0.044125963 0.2023821 0.43561098 0.44983426 0.21678853 0.15570897
0.33972186 0.46467772 0.40787333 0.16957937 0.1408332 0.28893903 0.32871297 0.23874162
0.10670586 0.06371569 0.14284402 0.19989295 0.14516753 0.05887945 0.19341092 0.38596144
0.4387206 0.26897755 0.090614736 0.28576267 0.52220327 0.5237943 0.27107882 0.041266453
0.263244 0.4583822 0.44471842 0.20027827 -0.012244017 0.15540853 0.23119658 0.17967346
-0.00029173068 -0.07742179 0.023749728 0.040647287 -0.042674333 -0.15198876 -0.10919574 -0.05800575
-0.11020238 -0.22275254 -0.34673905 -0.25466728 -0.17815179 -0.32208118 -0.39645925 -0.45630592
-0.31794563 -0.1973015 -0.38723662 -0.45035967 -0.45537934 -0.30645338 -0.10787617 -0.22379912
-0.26382858 -0.25228092 -0.17115797 0.022632191 0.043612983 0.09627772 0.17318742 0.15262562
0.099514 0.23224014 0.39364168 0.4309585 0.2786144 0.11935959 0.30061066 0.4715087
0.44455454 0.240239 0.026359247 0.08464299 0.22002847 0.23869815 0.1739452 -0.0009319954
0.02906485 0.09914009 0.095980585 0.08203081 -0.13298057 -0.2469377 -0.26346773 -0.18463571
-0.07451436 -0.24269333 -0.44604233 -0.46443963 -0.34869975 -0.1375759 -0.28255025 -0.514337
-0.5010005 -0.3547179 -0.14732072 -0.21488403 -0.38068387 -0.33385488 -0.2142161 -0.086827815
-0.080497675 -0.15236802 -0.1474579 -0.10898889 -0.053294662 0.046851374 -0.06388426 -0.23721972
-0.30317184 -0.19526953 0.089766584 -0.04569706 -0.32855725 -0.44090703 -0.29280508 0.054680966
-0.11957826 -0.43514135 -0.5375943 -0.35982308 -0.0038670679 -0.15615253 -0.36213383 -0.38838443
-0.26052728 -0.015594273 -0.131303 -0.2625487 -0.2512676 -0.17099
00000000: ad9b f3bd b60a efbd b14c 363c 8c33 0b3e
00000010: ecc3 e13d d18e cdbd 474b 35bd e5b1 3a3e
00000020: edb6 9c3e cced 473e 6dbd 343d 413d 4f3e
00000030: 6708 df3e ad50 e63e d0fd 5d3e 2c72 1f3e
00000040: 06f0 ad3e 3dea ed3e c6d4 d03e 37a6 2d3e
00000050: 9436 103e d1ef 933e 114d a83e af78 743e
00000060: 9a88 da3d 5f7d 823d b445 123e bdb0 4c3e
00000070: cca6 143e 942b 713d 830d 463e bd9c c53e
00000080: fd9f e03e 6db7 893e 3894 b93d 7c4f 923e
00000090: 1daf 053f 6217 063f d8ca 8a3e 0307 293d
000000a0: ebc7 863e 12b1 ea3e 22b2 e33e bf15 4d3e
000000b0: 219b 48bc 6a23 1f3e ccbe 6c3e 52fc 373e
000000c0: 6ef3 98b9 518f 9ebd ca8e c23c c57d 263d
000000d0: 48cb 2ebd f1a2 1bbe 04a2 dfbd 7097 6dbd
000000e0: c9b1 e1bd 3e19 64be c887 b1be c063 82be
000000f0: 6c6d 36be d3e7 a4be b5fc cabe eea0 e9be
00000100: c5c9 a2be 6809 4abe e143 c6be 8b95 e6be
00000110: 7b27 e9be 75e7 9cbe 2eee dcbd 992b 65be
00000120: 8a14 87be f72a 81be 0944 2fbe 2567 b93c
00000130: 87a3 323d 412d c53d 0b58 313e e449 1c3e
00000140: ffcd cb3d 5cd0 6d3e 678b c93e 98a6 dc3e
00000150: 8ca6 8e3e cd72 f43d a4e9 993e 9769 f13e
00000160: a79c e33e 3601 763e 59ef d73c 4e59 ad3d
00000170: 254f 613e 4a6d 743e b11e 323e 2751 74ba
00000180: 6919 ee3c f609 cb3d 7891 c43d c5ff a73d
00000190: 0f2c 08be 3ddd 7cbe 3ee5 86be 2511 3dbe
000001a0: fc9a 98bd 9a84 78be a95f e4be 08cb edbe
000001b0: c688 b2be b2e0 0cbe 6daa 90be 97ab 03bf
000001c0: 9241 00bf 969d b5be 3edb 16be 8f0a 5cbe
000001d0: ffe8 c2be 07ef aabe 775b 5bbe c8d2 b1bd
000001e0: f7db a4bd 5d06 1cbe 34ff 16be 9135 dfbd
000001f0: 814b 5abd 3ae7 3f3d c0d5 82bd bae9 72be
00000200: 5739 9bbe bcf4 47be 8bd7 b73d d72c 3bbd
00000210: a838 a8be 91be e1be 8cea 95be 26f9 5f3d
00000220: 72e5 f4bd d9ca debe c89f 09bf bb3a b8be
00000230: a26e 7dbb 73e6 1fbe 9b69 b9be 53da c6be
00000240: d563 85be 1f7f 7fbc 4b74 06be c96c 86be
00000250: 26a6 80be 0118 2fbe
