LeNet/cnn.pth (torch, 117719 bytes, 6 tensors)

conv1.0.weight f4 [16, 1, 5, 5]
0	0x3e80311d	0.2503747
1	0x3e8f201c	0.27954185
2	0xbf47f8a7	-0.7811379
3	0xbf62a513	-0.88533133
4	0xbf26f4f3	-0.6521751
5	0xbeb4c08a	-0.35303146
6	0xbf5b7780	-0.8572922
7	0xbf183e1d	-0.5946978
8	0x3d8a1295	0.067418255
9	0xbe2df44b	-0.16987722
10	0xbe2f6758	-0.17129266
11	0xbfb9d238	-1.4517279
12	0x3c35c27f	0.011093735
13	0x3d046ed4	0.032332256
14	0xbe10a34c	-0.14124793
15	0xbf68a793	-0.908807
16	0xbf58235c	-0.84428954
17	0x3eb5088e	0.3535809
18	0xbde9d3db	-0.11417361
19	0x3eeb33d0	0.45937967
20	0xbf832412	-1.0245383
21	0x3d3c01d6	0.04590019
22	0xbdaf0317	-0.08545511
23	0x3ead96d7	0.33904144
24	0x3f1c11b5	0.6096452
25	0x3aa84a4d	0.0012839526
26	0x3e860703	0.26177225
27	0x3ef78232	0.4834152
28	0x3ee26f3f	0.442255
29	0x3e53a28f	0.2066748
30	0x3ecd8543	0.40140733
31	0x3d9a1ac4	0.075246364
32	0x3d02c719	0.031928156
33	0x3e3ad430	0.18245006
34	0x3d9aadf5	0.07552711
35	0xbec16856	-0.37774915
36	0xbdbe3a36	-0.092884466
37	0xbd866d15	-0.065637745
38	0xbcd62884	-0.026142366
39	0x3e93fda0	0.28904438
40	0xbf187a63	-0.5956175
41	0xbf51d5bd	-0.81966764
42	0xbf053dad	-0.52047235
43	0xbed1ab6e	-0.40951103
44	0x3ea2b71a	0.3178032
45	0x3d3de482	0.0463605
46	0xbe68a83c	-0.22720426
47	0x3e4a2d40	0.19743824
48	0xbe31f613	-0.17379026
49	0xbe1560c0	-0.14587688
50	0xbd548eb1	-0.051893894
51	0xbf4f327d	-0.80936414
52	0xbf29e0dc	-0.66358733
53	0xbf040865	-0.5157531
54	0xbbd4987e	-0.006487905
55	0x3a8009ac	0.0009768507
56	0xbe1ccc26	-0.15312251
57	0xbc59ee9c	-0.013301518
58	0x3e77a308	0.24183285
59	0x3e3329ff	0.17496489
60	0x3e2d9eb9	0.16955079
61	0x3f067f4f	0.5253801
62	0x3e510bf9	0.20414723
63	0x3f2f9ce0	0.6859875
64	0xbd2f0de2	-0.04273785
65	0xbee98413	-0.45608577
66	0x3e5c4942	0.2151232
67	0xbecc9124	-0.39954484
68	0xbd653e74	-0.055967763
69	0xbf8b383a	-1.0876534
70	0xbef202b5	-0.4726769
71	0xbf8c67ed	-1.0969216
72	0xbf169f1a	-0.5883652
73	0xbee1f9a3	-0.4413577
74	0xbf37882a	-0.71692145
75	0xbde3bff7	-0.11120599
76	0x3e81f431	0.25381616
77	0xbc0ba857	-0.008524022
78	0x3e7e3ffa	0.24829093
79	0xbecb6611	-0.39726308
80	0xbf0521b7	-0.5200457
81	0xbdfdf530	-0.124002814
82	0xbe38dcc3	-0.18052964
83	0xbce49f65	-0.027908036
84	0xbf91abfe	-1.1380613
85	0xbf86e0b0	-1.0537319
86	0xbd18cc8c	-0.037304446
87	0x3f54b71a	0.8309189
88	0x3ecc624a	0.3991874
89	0xbea496d6	-0.3214633
90	0xbf7b0f59	-0.98070294
91	0xbde6e37e	-0.112738594
92	0x3f1160a5	0.5678809
93	0x3d717cba	0.05895684
94	0xbebeba49	-0.372515
95	0xbf376bb5	-0.7164872
96	0xbd2e783f	-0.042595144
97	0x3e33cd40	0.17558765
98	0x3ed975ac	0.4247259
99	0x3de5fe48	0.11230141
100	0xbd64aa01	-0.05582619
101	0xbe2ca34e	-0.16859171
102	0xbea9846e	-0.33108848
103	0xbd0ab5f7	-0.03386494
104	0xbbe4c40c	-0.0069813784
105	0xbe05b703	-0.13058095
106	0xbe1865e5	-0.1488262
107	0xbc4413c8	-0.011967607
108	0x3e3a989e	0.18222281
109	0xbd706fd6	-0.058700405
110	0xbe58c25a	-0.21167889
111	0xbe086b27	-0.13322125
112	0xbdab877b	-0.0837545
113	0x3d704b18	0.058665365
114	0xbe22821a	-0.15869942
115	0x3dffc55a	0.12488814
116	0x3de339f1	0.11095036
117	0x3df39e0e	0.11895381
118	0x3cf3890f	0.02972844
119	0x3bc51d12	0.0060154283
120	0xbda2bfb4	-0.07946721
121	0xbd83dfd7	-0.064391784
122	0xbe53ed3c	-0.20695966
123	0xbe870634	-0.2637192
124	0x3c0b690d	0.008508933
125	0xbca86a8f	-0.020558624
126	0xbe8417eb	-0.25799498
127	0xbd25f843	-0.040519964
128	0xbf282b1d	-0.65690786
129	0xbf76d463	-0.96417826
130	0x3e015d46	0.12633237
131	0x3eb35470	0.35025358
132	0x3eaee7e7	0.34161302
133	0xbe28963b	-0.16463558
134	0xbef3f48d	-0.47647515
135	0xbf00ebd1	-0.5035983
136	0xbdee1dfa	-0.11626811
137	0x3eff3e81	0.49852374
138	0x3f6015f8	0.8753352
139	0x3d4e17f7	0.050315823
140	0xbe92c5b9	-0.28666475
141	0xbf29c95c	-0.66322875
142	0xbefe33d5	-0.4964892
143	0x3cc20b84	0.023687132
144	0x3d23fdfa	0.040037133
145	0xbe7b3c48	-0.24534714
146	0xbe52b57a	-0.2057704
147	0xbf2d5cb0	-0.67719555
148	0xbe9d40d4	-0.30713522
149	0x3e2f35fc	0.17110437
150	0x3cd13ce3	0.025541728
151	0xbe5d41f0	-0.21607184
152	0xbf13881f	-0.5762958
153	0xbf492386	-0.7856983
154	0xbebb1596	-0.36539906
155	0xbf3d6114	-0.73976254
156	0xbf8666ee	-1.0500162
157	0xbf59d769	-0.85094315
158	0xbe964d48	-0.29355836
159	0x3db54b67	0.088522725
160	0xbf507df0	-0.81442165
161	0xbf2840da	-0.65723956
162	0x3c849557	0.016184492
163	0xbbfc4647	-0.0076988074
164	0xbe2de48b	-0.16981713
165	0xbf74974e	-0.9554337
166	0x3eddfb02	0.43355566
167	0x3ebd5f8f	0.36986968
168	0xbf54e787	-0.8316578
169	0xbf4cc667	-0.7999024
170	0xbe0b43bd	-0.13600059
171	0x3ecea07b	0.40356812
172	0xbe20ebb4	-0.15714914
173	0xbf27cb43	-0.6554453
174	0xbe5b8b33	-0.21439819
175	0x3f26eed2	0.6520816
176	0x3e535212	0.20636776
177	0xbf7ea9ab	-0.9947764
178	0xbfd02b30	-1.626318
179	0x3e2be4d5	0.16786511
180	0x3e75d3f9	0.24006642
181	0xbd6d3be9	-0.057918463
182	0xbf98cad2	-1.1936896
183	0xbf3fb413	-0.74884146
184	0xbf890e62	-1.0707514
185	0xbf8f4852	-1.1193945
186	0xbdf398a8	-0.11894351
187	0xbebac2b0	-0.3647666
188	0xbf104d2c	-0.56367755
189	0xbfb6d0d1	-1.4282476
190	0xbf2aa9f0	-0.66665554
191	0xc008a908	-2.1353168
192	0xbf248246	-0.6426128
193	0x3c2d9f09	0.010596999
194	0xbecc2120	-0.39869022
195	0xbdf19d05	-0.11797527
196	0xbe9d6987	-0.30744573
197	0x3f149135	0.5803407
198	0xbdf8b822	-0.121444955
199	0xbefbfbc9	-0.49215534
200	0xbeb63024	-0.35583603
201	0x3e69b6ee	0.22823688
202	0xbdc51320	-0.096227884
203	0xbd55c3d4	-0.05218871
204	0x3dd6f6d9	0.10496301
205	0x3dcb68e0	0.09932113
206	0x3e8c62d5	0.27419153
207	0xbed2e6ab	-0.4119161
208	0xbf17582b	-0.5911891
209	0x3c873f9d	0.016509825
210	0xbccd7034	-0.025077917
211	0xbde1fc19	-0.11034412
212	0xbf18c3b0	-0.59673595
213	0xbeeb8011	-0.45996144
214	0x3e8751a7	0.26429483
215	0xbde841c5	-0.113406695
216	0x3d225348	0.039630204
217	0x3ce136f8	0.027492031
218	0x3e3e67ba	0.18594256
219	0x3da15cdd	0.078790404
220	0x3b9d3ede	0.004798754
221	0x3df70360	0.120611906
222	0xbe1ca1aa	-0.15296045
223	0xbee20122	-0.4414149
224	0xbe4aebcd	-0.19816513
225	0x3df0209c	0.1172497
226	0xbef0f1e1	-0.4705954
227	0xbe34b957	-0.17648827
228	0x3e313b63	0.1730781
229	0x3ece11d4	0.40247977
230	0xbfd4a394	-1.661242
231	0x3da2d0bc	0.07949969
232	0x3df496fc	0.119428605
233	0x3ed2a84c	0.41144025
234	0x3db574e1	0.088601835
235	0xbf7ac3c6	-0.97954977
236	0x3e98fc51	0.29880002
237	0x3e804004	0.2504884
238	0x3ee58ca6	0.4483387
239	0xbddb8a4f	-0.1071974
240	0xbef2d29d	-0.4742631
241	0x3e1000c4	0.14062792
242	0xbd18c970	-0.03730148
243	0x3e4b013e	0.19824693
244	0xbe8e649e	-0.2781114
245	0xbe3bfe15	-0.18358643
246	0x3e644c72	0.22294787
247	0x3e3af9df	0.18259381
248	0x3e5d5e8a	0.21618095
249	0xbf5d3c56	-0.8642019
250	0x3eb457eb	0.35223326
251	0xbecc7693	-0.39934215
252	0xbf5ba968	-0.8580537
253	0xbe16e2ee	-0.14735004
254	0x3eb24f4e	0.3482613
255	0x3e18c436	0.14918599

conv1.0.bias f4 [16]
0	0xbed1a7e5	-0.40948406
1	0xbf228aec	-0.6349323
2	0xbe856120	-0.26050663
3	0xbf162f27	-0.586657
4	0xbeda657b	-0.42655548
5	0xbf3830e3	-0.71949595
6	0xbeb4f8f5	-0.3534619
7	0xbe00b15d	-0.12567659
8	0xbf4e9a30	-0.8070402
9	0xbf4efc47	-0.80853695
10	0xbede35ba	-0.43400365
11	0xbe5df196	-0.21674189
12	0xbf804d93	-1.0023674
13	0xbeefdde7	-0.46848986
14	0xbf034ec8	-0.51292086
15	0xbe6e4c7f	-0.23271368

conv2.0.weight f4 [32, 16, 5, 5]
0	0xbde14e4f	-0.11001264
1	0x3e8bf3b8	0.2733438
2	0x3df361cf	0.1188389
3	0x3f07b310	0.530076
4	0xbf8a4d98	-1.080493
5	0x3c9cf5b4	0.01916013
6	0xbe92be2b	-0.28660712
7	0x3e256c30	0.16154552
8	0xbf95f169	-1.1714298
9	0x3e4666ce	0.19375154
10	0xbfbc534d	-1.4712921
11	0xbd5857ef	-0.052818235
12	0xbe723b1f	-0.23655365
13	0xbfd23013	-1.6420921
14	0xbf6ef709	-0.93345696
15	0xbf3b1d60	-0.730917
16	0xbf823da0	-1.0175056
17	0x3e71e3c5	0.23622043
18	0xbf523554	-0.8211262
19	0xc00ddf17	-2.2167413
20	0xbe5eff39	-0.21777047
21	0x3eb77331	0.35830072
22	0x3ded9d90	0.11602318
23	0xbf2a4939	-0.6651798
24	0x3e03eb07	0.12882625
25	0x3f55a38f	0.83452696
26	0x3e2a705b	0.16644423
27	0xbf2b4742	-0.66905606
28	0xbf820b54	-1.0159707
29	0xbd01a4ce	-0.03165131
30	0xbfd025f0	-1.6261578
31	0xbf0dd8ce	-0.5540894
32	0x3e4dfb01	0.20115282
33	0xbf2fb4e3	-0.68635386
34	0xbb9a7b2a	-0.0047143893
35	0xbec0c185	-0.37647644
36	0x3f248628	0.64267206
37	0x3e3bcb0c	0.18339175
38	0xbed10151	-0.40821317
39	0xbf7ca6aa	-0.9869181
40	0x3f513734	0.8172486
41	0x3e81ac85	0.25326934
42	0xbb0923bc	-0.002092584
43	0x3e2016aa	0.15633646
44	0x3f212f88	0.6296315
45	0xbf273392	-0.65313065
46	0xbf2bca88	-0.67105913
47	0xbe615150	-0.22003675
48	0xbdec75dc	-0.115459174
49	0x3ecb6c1f	0.39730927
50	0x3f248095	0.642587
51	0xbf3edefe	-0.7455901
52	0xbf880c1e	-1.0628698
53	0x3f725141	0.94655234
54	0x3f225787	0.63414806
55	0x3f6945c1	0.9112206
56	0xbf192eda	-0.59837115
57	0xbf41dae9	-0.75724655
58	0xbee449a7	-0.44587442
59	0x3e805cb4	0.25070727
60	0x3f73231a	0.94975436
61	0xbf5c6e4f	-0.8610582
62	0xbe920faf	-0.2852759
63	0x3e0aa0f7	0.13537966
64	0x3f5d377a	0.86412776
65	0x3ef5713d	0.47937956
66	0x3ea76ced	0.3270029
67	0x3f136886	0.57581365
68	0x3e8f35dc	0.2797078
69	0x3eff15e9	0.49821404
70	0x3eba4294	0.3637892
71	0x3ec1a4de	0.37821096
72	0x3f0b2e38	0.543674
73	0xbefcc90e	-0.49372143
74	0x3ed341c9	0.41261128
75	0x3f8559f9	1.0418082
76	0xbe33b5a9	-0.17549767
77	0xbf78d08a	-0.97193205
78	0xbf612f27	-0.87962574
79	0xbfda1769	-1.7038394
80	0xbeb75347	-0.35805723
81	0xbfe4b029	-1.786626
82	0xbf635d67	-0.88814396
83	0x3eba2cbb	0.36362252
84	0xbdbad0f0	-0.09121883
85	0xbf933829	-1.1501514
86	0xbef6d351	-0.48208097
87	0x3e942735	0.28936163
88	0x3ed144da	0.40872842
89	0x3ed4adb1	0.41538766
90	0xbf14e05f	-0.58154863
91	0x3f2288c9	0.6348997
92	0x3ed4eee4	0.4158851
93	0xbf1f6d76	-0.622764
94	0x3db1c251	0.08679641
95	0xbe3384b6	-0.17531094
96	0x3db193a5	0.08670739
97	0x3ebafe45	0.36522117
98	0xbd8e54b7	-0.06949752
99	0x3f502c99	0.8131805
100	0xbe290ce6	-0.16508827
101	0xbc6738f9	-0.014112704
102	0x3dbc801a	0.09204121
103	0x3e32d247	0.17463027
104	0x3e8c2675	0.2737309
105	0x3dfd3974	0.12364474
106	0x3e2b18f5	0.16708739
107	0x3d3cd789	0.046103988
108	0xbd49f260	-0.049303412
109	0xbe8278ea	-0.25482875
110	0x3e02337a	0.12714949
111	0x3bf74a72	0.0075467164
112	0x3ca8c3b7	0.020601137
113	0xbe3149ae	-0.17313263
114	0xbde73749	-0.11289842
115	0xbe3685a7	-0.17824422
116	0xbd8bd3c3	-0.068275
117	0xbd80a843	-0.062820934
118	0xbe49dc4d	-0.19712944
119	0xbe347765	-0.1762367
120	0x3e26505d	0.16241594
121	0x3deb5954	0.11491647
122	0x3cea628f	0.02861145
123	0xbe81d5dc	-0.25358474
124	0xbed65fed	-0.4187006
125	0x3f629948	0.8851514
126	0xbf0d36f0	-0.5516195
127	0xbf9afdaa	-1.2108662
128	0xbfb32d99	-1.399829
129	0xbeb76e38	-0.35826278
130	0x3d7f5095	0.06233271
131	0xbe6ca458	-0.23109567
132	0xbf0e40dc	-0.5556772
133	0x3e812d4d	0.25229874
134	0xbe2a0b61	-0.16605903
135	0xbfa4cc1a	-1.2874787
136	0xbea4be9f	-0.32176682
137	0x3e08067b	0.13283722
138	0x3f7fad21	0.9987355
139	0xbe436b2d	-0.19083853
140	0x3dc5642e	0.096382484
141	0x3faa5f9b	1.3310426
142	0x3f10cff6	0.56567323
143	0x3f11feb8	0.57029295
144	0x3d835456	0.0641257
145	0x3ec2d229	0.38050964
146	0xbe87ad90	-0.26499605
147	0xbfb5810a	-1.4180005
148	0xbe9ad349	-0.30239323
149	0xbf9691ec	-1.1763282
150	0x3dc64814	0.096817166
151	0xbe9cd69d	-0.30632487
152	0x3ec229c8	0.37922502
153	0xbec71322	-0.38881785
154	0xbddc09b7	-0.107440405
155	0xbb03bb72	-0.002010074
156	0x3ea21b70	0.31661558
157	0x3cb41b71	0.021985741
158	0x3ddd9b8a	0.10820682
159	0xbe812a2c	-0.25227487
160	0xbd6b1e44	-0.05740191
161	0xbcedde23	-0.029036587
162	0xbf0379c7	-0.5135769
163	0xbee4b5a4	-0.4466983
164	0xbe1ccb15	-0.15311845
165	0xbe1d935e	-0.15388247
166	0xbf33d8c2	-0.7025262
167	0xbe864b27	-0.26229212
168	0xbea63913	-0.3246542
169	0xbf7aa9c4	-0.9791529
170	0x3e21ae05	0.1578904
171	0xbd9506d1	-0.07276691
172	0xbee43eef	-0.44579265
173	0x3e1189ad	0.14212675
174	0xbe9c9e84	-0.30589688
175	0xbf351449	-0.7073408
176	0xbfa434e9	-1.2828647
177	0xbfa813e8	-1.3131075
178	0xbfc193f5	-1.5123278
179	0xbdf8f0b0	-0.121552825
180	0xbe8f877a	-0.28033048
181	0xbe2cee25	-0.1688772
182	0xbf16fcef	-0.58979696
183	0x3f0db007	0.5534672
184	0x3e915983	0.28388605
185	0x3f71e50b	0.94490117
186	0xbf1dcbde	-0.616392
187	0x3e838e20	0.2569437
188	0x3cbc86f2	0.023013566
189	0xbe3d86f7	-0.18508516
190	0xbf661605	-0.8987735
191	0x3f0f2989	0.5592275
192	0xbf6cea13	-0.9254467
193	0x3d9ffc71	0.07811821
194	0xc00e3476	-2.221952
195	0xbf452fd2	-0.77026093
196	0xbf9eb147	-1.2397851
197	0xbda423b8	-0.08014625
198	0xbfa03cde	-1.2518575
199	0xbf0cb260	-0.5495968
200	0x3ea7619a	0.32691652
201	0x3e76d1cf	0.24103473
202	0xbc9e9d7c	-0.019362204
203	0x3d4f5a85	0.050623436
204	0xbb0a7d3c	-0.0021131774
205	0x3e27645f	0.16346882
206	0xbea0abb4	-0.31381
207	0xbd47e384	-0.04880096
208	0xbd0662c0	-0.03280902
209	0x3ed97e58	0.42479205
210	0xbe32394f	-0.17404674
211	0xbdf729ba	-0.120685056
212	0xbcf2754b	-0.029596945
213	0xbc0466c5	-0.008081143
214	0x3db1e48d	0.08686171
215	0xbca7f7eb	-0.020503959
216	0xbcc3f781	-0.02392173
217	0xbe90ef97	-0.28307793
218	0xbe1931cd	-0.14960404
219	0xbe002c59	-0.12516917
220	0xbde80d14	-0.113306195
221	0xbde7b32d	-0.11313472
222	0xbe1eb756	-0.15499625
223	0x3b418d33	0.0029533624
224	0x3d2721d5	0.04080375
225	0xbf050f05	-0.51976043
226	0xbf35904d	-0.7092331
227	0xbdd628b1	-0.1045698
228	0x3efb4d6d	0.4908251
229	0x3ed7be30	0.4213729
230	0x3e76e3ab	0.24110286
231	0x3ee1c2b1	0.4409385
232	0xbeae02b6	-0.33986443
233	0x3e05a1b0	0.1304996
234	0xbec0bd88	-0.376446
235	0xbda8a389	-0.08234317
236	0xbf191600	-0.59799194
237	0xbf0163e6	-0.5054306
238	0xbe83deb6	-0.25755852
239	0xbf5ab446	-0.85431325
240	0xbf5859ad	-0.84511834
241	0xbe186c4f	-0.14885066
242	0xbf1a0cff	-0.6017608
243	0x3d6b16b6	0.057394706
244	0xbfaa74c7	-1.3316888
245	0x3f30fb9c	0.69133925
246	0x3e59bb0d	0.2126276
247	0xbe471347	-0.19440947
248	0x3f5ec181	0.87014014
249	0x3f1df3c9	0.6170011
250	0xbf9e1ce4	-1.2352567
251	0xbf9fb36b	-1.2476629
252	0xbf7284af	-0.9473371
253	0xbfcdd659	-1.6081039
254	0xbed19277	-0.40932056
255	0xbf6949d7	-0.91128296

conv2.0.bias f4 [32]
0	0xbefc9d92	-0.49338967
1	0xbeb7feb9	-0.35936525
2	0xbf5b3197	-0.85622543
3	0xbf8243dc	-1.0176959
4	0xbecba3ec	-0.397735
5	0xbf57a158	-0.84230566
6	0xbf7416cc	-0.95347285
7	0xbf22aafe	-0.63542163
8	0xbf71f1a8	-0.94509363
9	0xbf0b1676	-0.5433115
10	0xbf7b6046	-0.98193777
11	0xbe8d1f37	-0.27562878
12	0xbe3647a5	-0.17800768
13	0xbf3e8188	-0.744164
14	0xbea943ac	-0.33059442
15	0xbf56f978	-0.8397441
16	0xbe3233d4	-0.17402583
17	0xbf7da069	-0.9907289
18	0xbfdfe678	-1.7492208
19	0xbe33328f	-0.17499755
20	0xbd2806b9	-0.041022036
21	0xbf016dfa	-0.50558436
22	0xbf204f30	-0.6262083
23	0xbf4af4ff	-0.79280084
24	0xbd1abcf2	-0.03777785
25	0xbead87d0	-0.3389268
26	0xbe057c35	-0.13035662
27	0xbf7026ed	-0.93809396
28	0xbedd27b0	-0.43194342
29	0xbf30a3d2	-0.6899997
30	0xbf086291	-0.532754
31	0xbf48848a	-0.7832724

out.weight f4 [10, 1568]
0	0x3f0f4b0e	0.559739
1	0x3e9275da	0.2860554
2	0xbf600480	-0.87506866
3	0xbe085a4d	-0.13315697
4	0x3f61417c	0.87990546
5	0x3ecbd89f	0.39813706
6	0x3efae734	0.4900452
7	0x3eaa3e96	0.33250874
8	0xbf467940	-0.7752876
9	0xbe90d2d1	-0.2828584
10	0x3e97a0f1	0.29614976
11	0x3e121913	0.14267378
12	0xbea6ca20	-0.32576084
13	0xbf18737d	-0.5955122
14	0x3ecf1a07	0.40449545
15	0xbf55e85b	-0.8355767
16	0xbeaa482c	-0.33258188
17	0x3e818409	0.25296047
18	0xbe83921b	-0.25697407
19	0x3e5e7242	0.21723273
20	0xbee4074f	-0.44536826
21	0x3ec21150	0.37903833
22	0xbf110180	-0.56642914
23	0xbebe3a30	-0.3715377
24	0x3ebc1033	0.3673111
25	0xbee3e300	-0.44509125
26	0xbf9bd040	-1.2172928
27	0x3dbc388b	0.09190472
28	0x3eb1c9c5	0.3472425
29	0xbd191577	-0.037373986
30	0x3d8459f0	0.06462467
31	0xbf25f600	-0.6482849
32	0xbd66a837	-0.056312766
33	0xbe6abe61	-0.22924186
34	0x3e9a96fd	0.3019332
35	0x3e5df90a	0.21677032
36	0x3cf28f93	0.029609477
37	0xbdf6722d	-0.12033496
38	0x3dbaaba9	0.09114773
39	0x3cf1cd02	0.0295167
40	0xbdcdd45e	-0.100502715
41	0xbe410133	-0.18848114
42	0x3d86e262	0.06586148
43	0x3e2e08e6	0.16995582
44	0xbe13731a	-0.14399377
45	0xbe970eed	-0.29503575
46	0xbea572af	-0.3231406
47	0xbe663c45	-0.22483929
48	0xbe13b754	-0.14425403
49	0x3c5f1b61	0.0136173675
50	0x3b89340a	0.0041871117
51	0xbd270244	-0.040773645
52	0x3d4d63ae	0.05014389
53	0xbdbf2b2d	-0.09334407
54	0xbde82422	-0.11335017
55	0xbd6de618	-0.058080763
56	0x3c91912e	0.017769422
57	0xbc7a11f4	-0.015263069
58	0xbd88c351	-0.06677879
59	0x3d08a062	0.033356078
60	0x3c985265	0.018593976
61	0xbd8114f7	-0.06302827
62	0xbdbaf7bc	-0.09129283
63	0x3d366bd4	0.044536427
64	0xbdb4d5c9	-0.08829839
65	0x3b7b7099	0.0038366674
66	0x3d3adabe	0.045618765
67	0x3d1e8b40	0.038707018
68	0xbe71659f	-0.23573922
69	0xbdc56fd1	-0.09640468
70	0x3d98d5f4	0.07462683
71	0xbdbf2c6f	-0.09334647
72	0x3e3eee4a	0.18645588
73	0x3da809bd	0.082049824
74	0xbdbfbb21	-0.09361864
75	0x3c70d37d	0.01469886
76	0xbec1e2be	-0.37868303
77	0x3e47038e	0.1943495
78	0xbd7a1fd5	-0.061065514
79	0x3e6d7420	0.2318883
80	0xbea155dd	-0.3151082
81	0xbd0ac931	-0.033883277
82	0xbcdb029b	-0.02673464
83	0x3e3e1c33	0.18565445
84	0x3d71ad49	0.05900315
85	0x3cc15e56	0.023604553
86	0x3e067ef7	0.1313437
87	0x3cf198b5	0.029491762
88	0x3d0725f6	0.032995187
89	0xbdd75b88	-0.10515505
90	0x3d11624d	0.035494138
91	0xbcda3022	-0.02663428
92	0x3d0f02b8	0.034914702
93	0xbcc11062	-0.023567382
94	0xbcac0842	-0.021000031
95	0xbb4ce37d	-0.0031263523
96	0x3ea9643f	0.33084294
97	0xbd49e6a4	-0.04929222
98	0xbc022a0c	-0.007944595
99	0xbe3dbf7f	-0.18530081
100	0xbcf3f72a	-0.029780943
101	0x3de8aefb	0.113615
102	0x3ea40033	0.32031402
103	0x3d129591	0.03578717
104	0x3f24c1fb	0.6435849
105	0xbf012594	-0.50447965
106	0xbed33fb4	-0.4125954
107	0xbf932ea7	-1.1498612
108	0x3e15acdf	0.14616726
109	0x3e99bf9b	0.30028996
110	0x3f217454	0.6306813
111	0x3e95919e	0.2921266
112	0x3f028b77	0.50994056
113	0x3d903dc1	0.070430286
114	0x3df3e7c5	0.11909441
115	0xbf68aa64	-0.90884995
116	0x3f1f3ab4	0.6219895
117	0x3ebc5c9a	0.367894
118	0x3f293068	0.6608949
119	0x3f15adaf	0.58468145
120	0xbf4e84a1	-0.80671126
121	0x3f530236	0.8242525
122	0x3f0f5a61	0.5599728
123	0xbf32c636	-0.69833696
124	0xbe8d8716	-0.27642125
125	0xbe93d420	-0.28872776
126	0x3ee54baa	0.4478429
127	0x3f6a4683	0.9151384
128	0x3f1a7c11	0.6034556
129	0x3f320b02	0.69548047
130	0xbfe971ef	-1.8237895
131	0xbf042af3	-0.51628035
132	0xbf78a0d1	-0.97120386
133	0x3d04809f	0.032349225
134	0xbf02bfa7	-0.5107369
135	0x3f2df8da	0.6795784
136	0xbfee3912	-1.8611166
137	0xbff143b2	-1.8848784
138	0xbf8c12d2	-1.0943244
139	0xbf8d9cbe	-1.1063459
140	0xbeccb437	-0.39981243
141	0xbe8367a9	-0.25665024
142	0xbf83715f	-1.0268973
143	0xbf4b71d7	-0.7947058
144	0xbfb7b200	-1.4351196
145	0xbe8e4528	-0.27787137
146	0xbeed4cb2	-0.46347576
147	0xbe74a3d9	-0.23890628
148	0xbf1b7433	-0.6072418
149	0xbdcf040e	-0.10108195
150	0x3ce0f606	0.027461063
151	0x3bc458a6	0.005992013
152	0x3edd6e97	0.43248436
153	0xbe853161	-0.26014236
154	0x3f149b5a	0.5804955
155	0xbdf04ff2	-0.11733998
156	0x3d75b58f	0.0599876
157	0x3f84cc1a	1.0374787
158	0x3fc4436a	1.5333073
159	0x3f10afdb	0.56518334
160	0x3ea0768c	0.31340444
161	0x3f2cec79	0.6754833
162	0xbf8d0998	-1.1018553
163	0xbfc84dd4	-1.5648751
164	0xbf00442a	-0.5010401
165	0xbf86bda9	-1.052663
166	0xc006883e	-2.1020656
167	0xbee2262c	-0.44169748
168	0xbfb5d622	-1.4205973
169	0xbf8b9e72	-1.0907729
170	0xbec82a0f	-0.39094588
171	0x3fd256cd	1.643274
172	0xbf924119	-1.1426116
173	0xbffe6a21	-1.9876138
174	0xbfcaa309	-1.5831004
175	0xbe837a35	-0.25679174
176	0xbf68ea69	-0.9098268
177	0x3f7c69e0	0.9859905
178	0x3ec01cc7	0.37521955
179	0xbdb8ff82	-0.09033109
180	0xbf4690a4	-0.77564454
181	0xbd1df5f4	-0.038564637
182	0xbeb2b4e3	-0.3490363
183	0xbe078622	-0.13234761
184	0x3f978476	1.1837299
185	0x3ee87c07	0.45407125
186	0x3f4cc3ba	0.79986155
187	0x3e3a67b1	0.18203618
188	0x3ddea455	0.108711876
189	0xbe460417	-0.19337498
190	0x3e1af524	0.15132576
191	0xbe77c7f4	-0.2419737
192	0xbe42ec2e	-0.19035408
193	0x3d9303ac	0.07178435
194	0xbf0f9bdc	-0.560972
195	0xbf0b589f	-0.544321
196	0xbd31f8ac	-0.043450043
197	0xbd50fdeb	-0.051023405
198	0xbcecf0d2	-0.028923426
199	0x3c76e0c1	0.015068234
200	0xbc9e27f6	-0.019306164
201	0xbabce16d	-0.0014410444
202	0x3c501110	0.0126993805
203	0x3bcdb7d7	0.006278019
204	0x3c07f4e1	0.00829813
205	0xbca80cf5	-0.02051399
206	0x3bc44d79	0.005990681
207	0xbcb9c01d	-0.022674615
208	0x3cf61d1c	0.030043177
209	0x3d17aa30	0.037027538
210	0x3d16af11	0.03678805
211	0x3c8cc7df	0.01718515
212	0xbd49dea6	-0.0492846
213	0xbd1fbdc9	-0.038999353
214	0x3d06336e	0.03276389
215	0x3c144aad	0.009051007
216	0x3df118a7	0.1177228
217	0x3cbc296c	0.02296897
218	0x3c86cd61	0.016455354
219	0x3da942bd	0.082646824
220	0xbcfa8c3d	-0.030584449
221	0x3c66c16e	0.014084203
222	0xbde1ff70	-0.11035049
223	0xbdb19786	-0.08671479
224	0x3da914af	0.08255898
225	0x3d91805a	0.07104559
226	0x3d4fc375	0.05072351
227	0xbd4c39fe	-0.049859993
228	0x3b821697	0.003969978
229	0xbdefa64e	-0.11701642
230	0xbdbd5606	-0.09244923
231	0x3d8f91f7	0.070102625
232	0x3d722dea	0.05912582
233	0x3cd41e5b	0.02589338
234	0xbcb92f4a	-0.022605557
235	0xbcd3a5f2	-0.025835965
236	0x3c80c120	0.01571709
237	0x3dbcb773	0.09214678
238	0x3cb5fcc1	0.022215249
239	0x3d883cf4	0.06652251
240	0x3d389114	0.045060232
241	0x3c835c4b	0.01603522
242	0xbc9d1fdf	-0.019180236
243	0xbdc90446	-0.09815268
244	0x3ce36f55	0.027763048
245	0x3ef2f5e8	0.47453237
246	0xbe7b89d3	-0.24564295
247	0xbed29758	-0.4113109
248	0xbd0def00	-0.034651756
249	0xbeabbc0c	-0.33541906
250	0x3f844f25	1.0336653
251	0xbf724caf	-0.9464826
252	0xbdbdcc5e	-0.092674956
253	0x3e83e9b4	0.2576424
254	0xbf2308b4	-0.63685155
255	0xbee37357	-0.44423935

out.bias f4 [10]
0	0x3e3a9dab	0.18224208
1	0x3f6113b2	0.8792068
2	0xbe535b44	-0.20640284
3	0xbeab94a1	-0.33511832
4	0xbe60224a	-0.2188808
5	0x3e13aefd	0.14422221
6	0xbe1867f5	-0.14883406
7	0xbdec2b37	-0.1153168
8	0x3d713ba5	0.058894772
9	0xbd1665a7	-0.036718037
